audio_mnist_cnn_speakers.pth (torch, 27403 bytes, 20 tensors)

conv1.weight f4 [4, 1, 3, 3]
-0.2225572 0.059540104 -0.08554387 0.216223 0.016909072 0.23040047 -0.0929327 0.25259188
-0.17409675 -0.17618798 -0.18693383 0.30171496 0.1739667 0.34177655 -0.26930967 -0.3503192
-0.37218052 -0.33745506 0.2353146 0.19282554 0.2893636 -0.13346614 -0.18191192 0.22149302
-0.24519145 0.042169806 -0.23681141 0.18695769 -0.1852122 -0.12547459 0.15570635 0.20411056
0.07761926 0.3937943 0.2773763 -0.06285942
00000000: 09e6 63be 53e0 733d a031 afbd 9069 5d3e
00000010: e584 8a3c 1aee 6b3e 8053 bebd b953 813e
00000020: 6b46 32be 9f6a 34be 956b 3fbe 627a 9a3e
00000030: 5424 323e 56fd ae3e f5e2 89be 0a5d b3be
00000040: 728e bebe e9c6 acbe 4ff6 703e 0f74 453e
00000050: 7727 943e 59ab 08be 1e47 3abe 11cf 623e
00000060: 7813 7bbe 3fba 2c3d b17e 72be d671 3f3e
00000070: 44a8 3dbe 697c 00be 7c71 1f3e 5c02 513e
00000080: d9f6 9e3d 689f c93e 4404 8e3e 71bc 80bd

conv1.bias f4 [4]
-0.17743196 0.2946802 -0.11253146 -0.10877544
00000000: b9b0 35be 53e0 963e e576 e6bd a8c5 debd

bn1.weight f4 [4]
0.9519123 1.0205812 1.1904424 0.9310625
00000000: 86b0 733f 68a2 823f 6b60 983f 1d5a 6e3f

bn1.bias f4 [4]
-0.003990693 -0.0014261205 -0.07445516 -0.021052223
00000000: 5cc4 82bb aaec baba f27b 98bd b675 acbc

bn1.running_mean f4 [4]
-7.92514 -4.5613227 -22.157215 -13.0376005
00000000: bf9a fdc0 5bf6 91c0 fa41 b1c1 039a 50c1

bn1.running_var f4 [4]
7585.718 2793.8254 14015.824 5483.878
00000000: be0d ed45 359d 2e45 4cff 5a46 065f ab45

conv2.weight f4 [8, 4, 3, 3]
-0.11516587 -0.10006443 -0.013386264 0.005579991 -0.08368048 0.029875902 -0.34016836 -0.37360358
-0.35402235 -0.09698001 -0.06887551 0.18457489 -0.03901602 -0.019677678 -0.15877551 0.099540986
0.06871564 0.1183773 -0.17123207 -0.09955231 -0.100987695 0.031126615 -0.077016346 -0.07509725
-0.026337674 -0.011667157 -0.0036598546 0.0311589 -0.12035762 0.04493252 0.030456 0.20508789
0.1055874 -0.24375784 -0.039980322 -0.17573094 -0.10391244 -0.16659772 -0.18170832 0.019661257
-0.049557418 0.06959522 0.01096694 0.17010336 -0.15509072 0.106526665 0.08896914 0.09261238
0.017212408 0.009694229 -0.20468591 -0.0711885 -0.18282884 -0.098325975 0.04720632 0.20288615
-0.13679296 0.044187706 0.012769864 0.010046039 -0.044043265 0.24579173 0.16132252 -0.03036407
-0.15427631 0.067787185 0.008423012 -0.045805763 0.19740021 0.07903139 -0.15855286 -0.11967334
-0.028558314 0.048756626 -0.059049062 -0.101146095 -0.08408972 -0.12176535 0.0046945205 0.10942846
-0.092127435 0.03130367 0.1276174 0.052523818 0.0021049262 0.089344874 0.044603933 0.022249363
-0.05791593 -0.0569836 0.04669921 0.008415439 0.013923125 0.27858812 0.24129146 -0.010479586
-0.13200179 -0.11563746 -0.10636931 0.054169707 0.016480565 -0.15958858 -0.085972704 0.09842031
0.053008094 -0.07426625 -0.06858267 -0.060704883 -0.12064607 -0.06011845 0.06635531 0.09867265
0.071014814 -0.16810532 -0.49861962 -0.27104607 0.049386933 -0.0006356579 -0.077408366 0.00072738953
-0.12462701 -0.12465453 0.15422495 -0.018561153 -0.0112298895 -0.20002985 0.17885305 0.154905
0.10422258 -0.22193748 -0.14361845 0.07374569 0.29627126 0.112571724 -0.055210736 0.062740125
-0.025074335 -0.0014368892 -0.040775746 -0.100932375 -0.12698196 -0.038511883 -0.14132513 -0.09730276
-0.086571544 -0.02146593 -0.1059715 -0.12274438 -0.0076978626 -0.10565972 0.042138416 -0.03863484
-0.024853881 -0.10564572 -0.08179215 -0.04894056 -0.18029809 0.20230383 -0.0076691415 0.014526715
-0.0049059517 0.11729656 -0.07598234 0.06640906 -0.17109802 0.1524504 0.30128393 0.09646594
0.005631047 -0.0379767 -0.10034463 0.12305955 -0.07979935 0.14592001 0.11317722 0.05223609
-0.1475784 -0.07632702 0.09408745 0.22429755 -0.1481737 -0.007056715 -0.08857692 -0.03249909
-0.091557264 -0.10041466 0.02350774 -0.09662244 0.2169489 0.17903607 0.039762974 0.006963166
-0.019182824 -0.07343223 -0.07289523 0.11174088 -0.013344111 -0.1098667 -0.111636 -0.029434
-0.020238137 -0.2104265 -0.21833673 -0.21992455 -0.03669245 -0.073937654 0.18826248 -0.06741921
0.07980269 -0.0958333 -0.017715272 0.13419148 0.021192629 0.111181326 0.27588716 0.33163598
-0.054389548 0.0022790402 0.058632847 -0.04895647 -0.008109365 -0.19915551 -0.21499884 -0.014967986
0.014516844 -0.15778291 -0.20538183 0.017601732 -0.21449028 -0.16131686 -0.0052282833 0.085940525
0.021151423 -0.060077906 -0.05435933 0.022745926 -0.34941092 -0.010503889 0.13339014 0.039492995
0.16436598 0.007917493 -0.02182321 -0.012269587 -0.09172203 0.045370717 -0.019545278 0.17505765
-0.1098668 -0.16770945 0.107693024 0.1719355 0.07034356 0.07261183 0.03698425 -0.20536949
00000000: 15dc ebbd 94ee ccbd 1052 5bbc 5bd8 b63b
00000010: ac60 abbd 4fbe f43c 8c2a aebe f848 bfbe
00000020: 6b42 b5be 759d c6bd 9a0e 8dbd 3301 3d3e
00000030: 43cf 1fbd 1533 a1bc 0c96 22be 25dc cb3d
00000040: c9ba 8c3d cc6f f23d 7657 2fbe 15e2 cbbd
00000050: a3d2 cebd 3efd fe3c bfba 9dbd 96cc 99bd
00000060: 1bc2 d7bc 9a27 3fbc 2cda 6fbb f340 ff3c
00000070: 0e7e f6bd 290b 383d dc7e f93c 8f02 523e
00000080: 353e d83d a89b 79be 68c2 23bd d0f2 33be
00000090: 0cd0 d4bd 9898 2abe bf11 3abe a510 a13c
000000a0: b8fc 4abd f087 8e3d aeae 333c 932f 2e3e
000000b0: 1ad0 1ebe a72a da3d 7435 b63d 8fab bd3d
000000c0: 0901 8d3c 8bd4 1e3c 2f99 51be 47cb 91bd
000000d0: 7c37 3bbe 215f c9bd 6a5b 413d 63c1 4f3e
000000e0: 7413 0cbe 2bfe 343d b138 513c 2498 243c
000000f0: b666 34bd d4b0 7b3e bb31 253e 12be f8bc
00000100: 9cfa 1dbe 02d4 8a3d ac00 0a3c d39e 3bbd
00000110: 4823 4a3e 36db a13d ae5b 22be 4c17 f5bd
00000120: 20f3 e9bc 07b5 473d 6edd 71bd af25 cfbd
00000130: 3b37 acbd 1d60 f9bd 7ed4 993b 071c e03d
00000140: 4fad bcbd 4738 003d 23ae 023e 3723 573d
00000150: cdf2 093b 72fa b63d 9db2 363d 4c44 b63c
00000160: 4139 6dbd a367 69bd ac47 3f3d e9e0 093c
00000170: d21d 643c 1aa3 8e3e 1c15 773e 92b2 2bbc
00000180: 7a2b 07be 55d3 ecbd 27d8 d9bd 0ee1 5d3d
00000190: 4002 873c 306b 23be 7512 b0bd 9690 c93d
000001a0: 041f 593d e718 98bd 1275 8cbd afa5 78bd
000001b0: 4915 f7bd c43e 76bd 4be5 873d e314 ca3d
000001c0: 3770 913d cd23 2cbe 124b ffbe 8dc6 8abe
000001d0: f449 4a3d 48a2 26ba 4788 9ebd 49ae 3e3a
000001e0: 723c ffbd e04a ffbd 25ed 1d3e 8f0d 98bc
000001f0: 92fd 37bc a0d4 4cbe 4125 373e 6b9f 1e3e
00000200: a672 d53d 9443 63be b710 13be fb07 973d
00000210: deb0 973e 018c e63d a724 62bd e57d 803d
00000220: b168 cdbc 0056 bcba 7804 27bd a2b5 cebd
00000230: 8f07 02be a3be 1dbd 89b7 10be ab46 c7bd
00000240: 6c4c b1bd 51d9 afbc 9607 d9bd 6861 fbbd
00000250: 5a3e fcbb 2064 d8bd 5599 2c3d 913f 1ebd
00000260: 5e9a cbbc c95c d8bd a582 a7bd e675 48bd
00000270: 10a0 38be bc28 4f3e 6c4d fbbb 7501 6e3c
00000280: 1bc2 a0bb 2e39 f03d a19c 9bbd 7901 883d
00000290: 5234 2fbe f51b 1c3e e341 9a3e ef8f c53d
000002a0: a584 b83b 758d 1bbd 7c81 cdbd a506 fc3d
000002b0: d76d a3bd 0e6c 153e 75c9 e73d 83f5 553d
000002c0: cb1e 17be 5751 9cbd ecb0 c03d 42ae 653e
000002d0: d9ba 17be 043c e7bb d167 b5bd c41d 05bd
000002e0: 6082 bbbd 34a6 cdbd 4e93 c03c fce1 c5bd
000002f0: da27 5e3e 3b55 373e 80de 223d 452b e43b
00000300: 4c25 9dbc a363 96bd 184a 95bd 67d8 e43d
00000310: 42a1 5abc cb01 e1bd 6aa1 e4bd 921f f1bc
00000320: 73ca a5bc 0b7a 57be aa93 5fbe e733 61be
00000330: d34a 16bd a06c 97bd e1c7 403e 1513 8abd
00000340: 986f a33d 4044 c4bd 9e1f 91bc 7e69 093e
00000350: 2a9c ad3c 09b3 e33d 1541 8d3e 31cc a93e
00000360: 93c7 5ebd f35b 153b ff28 703d 9486 48bd
00000370: 24dd 04bc 6cef 4bbe a828 5cbe 493c 75bc
00000380: 0fd8 6d3c d891 21be 9d4f 52be 8231 903c
00000390: 57a3 5bbe 3f30 25be 0552 abbb 9601 b03d
000003a0: c045 ad3c 4014 76bd e4a7 5ebd aa55 ba3c
000003b0: fde5 b2be 8118 2cbc 6d97 083e 68c3 213d
000003c0: 8e4f 283e 5fb8 013c 97c6 b2bc 6106 49bc
000003d0: c2d8 bbbd a5d6 393d 6b1d a0bc 5042 333e
000003e0: d801 e1bd 07bc 2bbe 298e dc3d dc0f 303e
000003f0: 4910 903d 83b5 943d cc7c 173d 614c 52be

conv2.bias f4 [8]
-0.07888532 0.07675532 -0.031285692 -0.08286989 -0.03749014 0.13548079 0.12106715 0.101363346
00000000: a08e a1bd e531 9d3d 6d25 00bd b0b7 a9bd
00000010: 438f 19bd 7abb 0a3e 0ef2 f73d 9697 cf3d

bn2.weight f4 [8]
1.11586 0.9892812 1.0314656 0.9651292 1.0310833 0.98747313 0.9219357 0.9326462
00000000: 80d4 8e3f 8841 7d3f 1107 843f b512 773f
00000010: 8afa 833f 0acb 7c3f fa03 6c3f e7c1 6e3f

bn2.bias f4 [8]
-0.035841815 -0.020772433 -0.25781453 -0.009780388 -0.08567283 -0.15701807 -0.04357265 0.048067823
00000000: dece 12bd f32a aabc 4400 84be ec3d 20bc
00000010: 3d75 afbd 58c9 20be 3c79 32bd c4e2 443d

bn2.running_mean f4 [8]
-0.39252046 0.0032249717 0.020988278 -0.32186705 -0.06379976 -0.06368577 -0.23939061 0.01918179
00000000: 71f8 c8be 0c5a 533b 9cef ab3c c2cb a4be
00000010: 73a9 82bd af6d 82bd d022 75be 2123 9d3c

bn2.running_var f4 [8]
0.074632496 0.07827198 0.037924357 0.06670218 0.037483152 0.102009274 0.09179652 0.028647961
00000000: ecd8 983d 0f4d a03d 9256 1b3d 279b 883d
00000010: ef87 193d 3dea d03d d0ff bb3d 21af ea3c

conv3.weight f4 [16, 8, 3, 3]
-0.043936566 -0.08345684 0.054231856 -0.07311144 -0.02912196 0.054464 -0.01782085 -0.047766007
-0.009696852 -0.048023473 -0.1357547 -0.108902596 -0.061609305 -0.09012261 0.039312016 0.040511947
-0.019057026 0.045245335 0.13235204 0.11696462 -0.16295817 -0.12393557 0.10073038 0.07363233
-0.004470531 -0.07106617 -0.10711638 -0.10637606 0.035404116 0.10954295 0.10412471 0.035080556
-0.089089185 -0.05653854 0.03789862 0.09143346 -0.061245654 -0.104436986 0.0881387 0.016568316
0.038213912 -0.0896482 0.025655594 0.05540836 0.030854218 -0.07717103 0.02682033 0.02809653
0.08481312 0.13119167 -0.057703197 -0.09497204 0.08158583 -0.031852353 0.04133134 -0.026712129
-0.15985106 -0.08849368 -0.020877508 0.03380398 0.051387317 -0.055737995 0.05944065 -0.004254214
-0.04667618 0.08348057 0.060474772 0.07241171 -0.085630514 -0.00028507676 0.0015274178 -0.038854737
-0.05674481 0.06986114 -0.074245356 0.32253432 0.32351923 0.23659351 0.0825463 0.07596003
0.17150578 -0.11755938 -0.057573117 -0.02763657 0.05410256 0.031053664 -0.03734374 0.112578295
0.19344458 0.17658314 -0.05453132 0.113610506 0.050205868 0.06399982 0.074556455 -0.038807407
-0.038512666 -0.025066432 -0.046178523 0.0063792313 -0.01577888 0.07561731 -0.09438836 -0.12917218
-0.15348232 0.09911289 0.019299073 0.056625698 0.09656931 0.08244036 0.046806056 -0.020532383
-0.08325475 -0.0720359 -0.15957858 -0.009242419 -0.037270192 -0.006374121 -0.08484774 -0.08572661
-0.054445952 0.15802008 -0.05251522 -0.014571102 -0.04468327 0.023270497 -0.048319373 -0.0438301
0.030031538 0.07278345 -0.031561796 0.04819783 -0.026368903 -0.08490837 -0.08511974 0.037193194
0.019750355 0.053266313 0.06331239 0.08156686 0.022309544 -0.13071075 -0.022563132 -0.08904398
0.26241404 0.10131088 0.031511385 0.022826629 -0.03632346 -0.063139595 -0.044090997 0.09139975
0.060526595 0.14188091 -0.017875085 -0.10099884 0.14143892 0.034413557 0.03600006 0.037240703
0.041140627 0.052196305 -0.02384258 0.029426703 0.0856301 0.21942931 0.13824496 -0.03087993
-0.04684096 -0.044697043 -0.12555674 -0.027482716 0.039534852 0.04790778 -0.07519396 -0.03261706
-0.15342048 -0.037328444 -0.027896287 -0.031089505 -0.04997124 -0.054426212 0.15261371 -0.038521897
-0.049877595 0.047781058 -0.12610883 0.008163016 0.12907943 0.094264895 0.116005294 0.014572225
0.06171819 0.08662702 0.010858968 -0.055777065 0.072623186 -0.111751735 0.05443015 0.0141596375
-0.073594294 0.045322884 0.022612477 0.07739563 -0.06810394 -0.0028309608 0.09100824 -0.109497294
-0.046141267 -0.003852691 0.019584803 0.0271742 0.040593237 -0.017333051 -0.0135671515 -0.025895368
0.05446551 -0.038451288 -0.011518778 -0.02407298 -0.041826393 0.13161182 -0.14140712 -0.09602341
0.09192108 -0.019954536 -0.049459986 -0.13551362 -0.15336728 -0.04776593 -0.08220088 0.10095077
0.08748311 -0.11961801 0.020861318 0.037984442 0.029575564 0.10194361 0.11917084 -0.031693134
0.02692338 -0.10397398 -0.09533536 -0.026896233 0.057769306 0.03727612 -0.038981374 -0.025311083
-0.06313072 -0.11642074 -0.058392268 0.1308388 -0.1626137 -0.032752562 0.0011833258 0.17672206
00000000: d4f6 33bd 6beb aabd 3922 5e3d 73bb 95bd
00000010: 2d91 eebc a515 5f3d 08fd 91bc 4aa6 43bd
00000020: 8cdf 1ebc 43b4 44bd 4803 0bbe 5308 dfbd
00000030: 0a5a 7cbd 3492 b8bd a305 213d dbef 253d
00000040: 7b1d 9cbc 2c53 393d 4b87 073e 268b ef3d
00000050: 82de 26be efd1 fdbd bb4b ce3d 8ccc 963d
00000060: 887d 92bb 248b 91bd d55f dbbd b1db d9bd
00000070: e803 113d 0e58 e03d 563f d53d a1b0 0f3d
00000080: 6474 b6bd f594 67bd 953b 1b3d 7741 bb3d
00000090: b9dc 7abd 0fe3 d5bd 1082 b43d 47ba 873c
000000a0: 3186 1c3d 7a99 b7bd ae2b d23c e0f3 623d
000000b0: fcc1 fc3c d80b 9ebd 4fb6 db3c b22a e63c
000000c0: 80b2 ad3d 1c57 063e 305a 6cbd b380 c2bd
000000d0: 7916 a73d 9d77 02bd 0d4b 293d 65d3 dabc
000000e0: ffaf 23be 2d3c b5bd 4f07 abbc 0b76 0a3d
000000f0: 827b 523d 864d 64bd 0a78 733d ef66 8bbb
00000100: 862f 3fbd dcf7 aa3d 65b4 773d 974c 943d
00000110: 0d5f afbd 5b76 95b9 a333 c83a 2526 1fbd
00000120: 3f6d 68bd 5b13 8f3d f30d 98bd 3823 a53e
00000130: 50a4 a53e 9245 723e 090e a93d ef90 9b3d
00000140: 369f 2f3e f9c2 f0bd cad1 6bbd 1766 e2bc
00000150: a59a 5d3d 4164 fe3c c0f5 18bd 738f e63d
00000160: 5616 463e 36d2 343e 3c5c 5fbd a0ac e83d
00000170: aba4 4d3d 5612 833d 0eb1 983d 84f4 1ebd
00000180: 75bf 1dbd 1e58 cdbc b125 3dbd df08 d13b
00000190: b642 81bc 40dd 9a3d af4e c1bd b645 04be
000001a0: 782a 1dbe b3fb ca3d 1719 9e3c 59f0 673d
000001b0: 21c6 c53d 7ed6 a83d b5b7 3f3d 8733 a8bc
000001c0: 7781 aabd 8f87 93bd 9168 23be 846d 17bc
000001d0: a1a8 18bd 01de d0bb a7c4 adbd 6f91 afbd
000001e0: b802 5fbd 04d0 213e 331a 57bd a2bb 6ebc
000001f0: ce05 37bd c5a1 be3c 89ea 45bd 3187 33bd
00000200: b304 f63c 7d0f 953d f146 01bd 166b 453d
00000210: 9903 d8bc 71e4 adbd 4253 aebd e457 183d
00000220: 7fcb a13c c72d 5a3d eda9 813d 870c a73d
00000230: 81c2 b63c 0ad9 05be 51d6 b8bc b15c b6bd
00000240: 225b 863e 147c cf3d 1512 013d e9fe ba3c
00000250: e9c7 14bd 554f 81bd c398 34bd cb2f bb3d
00000260: bcea 773d 3b49 113e c56e 92bc 7bd8 cebd
00000270: 5dd5 103e 3bf5 0c3d cd74 133d b589 183d
00000280: 1383 283d cbcb 553d 8451 c3bc 4510 f13c
00000290: d55e af3d 14b2 603e 1690 0d3e e8f7 fcbc
000002a0: 4edc 3fbd 3f14 37bd f291 00be 6f23 e1bc
000002b0: 4cef 213d f33a 443d 4aff 99bd 7799 05bd
000002c0: 421a 1dbe b6e5 18bd c186 e4bc 6baf febc
000002d0: a5ae 4cbd 05ee 5ebd c546 1c3e 23c9 1dbd
000002e0: 734c 4cbd 12b6 433d ac22 01be 2cbe 053c
000002f0: 662d 043e f40d c13d 2f94 ed3d 57c0 6e3c
00000300: 36cc 7c3d 8269 b13d d0e9 313c 7e76 64bd
00000310: 77bb 943d 18de e4bd 26f2 5e3d d3fd 673c
00000320: 9bb8 96bd 7da4 393d cd3d b93c 9a81 9e3d
00000330: 147a 8bbd a487 39bb 8762 ba3d 1e40 e0bd
00000340: a0fe 3cbd 6e7d 7cbb 4f70 a03c 6e9c de3c
00000350: 1845 263d 0bfe 8dbc c248 5ebc 8622 d4bc
00000360: 3a17 5f3d 197f 1dbd 42b9 3cbc b334 c5bc
00000370: 2752 2bbd 40c5 063e 07cd 10be eca7 c4bd
00000380: 1f41 bc3d b277 a3bc 8e96 4abd 15c4 0abe
00000390: 500c 1dbe 35a6 43bd ef58 a8bd 47bf ce3d
000003a0: 582a b33d 4afa f4bd 5be5 aa3c 9395 1b3d
000003b0: 7448 f23c d0c7 d03d d70f f43d a9d0 01bd
000003c0: 6c8e dc3c 4ff0 d4bd 2f3f c3bd 7d55 dcbc
000003d0: 829f 6c3d d8ae 183d efaa 1fbd 3059 cfbc
000003e0: ae4a 81bd ff6d eebd bb2c 6fbd 9bfa 053e
000003f0: 3584 26be 8d27 06bd d319 9b3a a1f6 343e

conv3.bias f4 [16]
0.11771318 -0.119689 -0.08163654 0.0415398 0.008010104 -0.023588924 0.02754954 0.09834673
0.07533111 -0.08388312 -0.1104156 -0.17189163 -0.060056586 -0.07475678 0.054782752 0.041144934
00000000: 9c13 f13d 821f f5bd 0f31 a7bd a325 2a3d
00000010: d03c 033c 8f3d c1bc 93af e13c 036a c93d
00000020: 3247 9a3d eaca abbd 9321 e2bd 5c04 30be
00000030: e5fd 75bd 151a 99bd e163 603d 9787 283d

bn3.weight f4 [16]
1.511534 1.555927 1.3147666 1.4075046 1.4757578 1.3640531 1.300902 1.4896104
1.4100069 1.4522973 1.5474764 1.4988413 1.2942245 1.3932073 1.5912514 1.3945867
00000000: f279 c13f 9e28 c73f 464a a83f 1c29 b43f
00000010: a2e5 bc3f 4b99 ae3f f583 a63f 8eab be3f
00000020: 1b7b b43f e1e4 b93f b513 c63f 08da bf3f
00000030: 26a9 a53f 9e54 b23f 20ae cb3f d181 b23f

bn3.bias f4 [16]
0.053775355 0.08614745 0.0005909314 0.019136883 0.06805895 0.0026836514 0.093721285 0.08169396
0.085396715 0.034159523 0.061097044 -0.03119494 0.009487514 0.06432281 0.14196306 -0.008974218
00000000: 8c43 5c3d 136e b03d bce8 1a3a f4c4 9c3c
00000010: 7e62 8b3d 33e0 2f3b f2f0 bf3d 2a4f a73d
00000020: 79e4 ae3d dbea 0b3d e540 7a3d 888c ffbc
00000030: 8571 1b3c adbb 833d c45e 113e 9908 13bc

bn3.running_mean f4 [16]
-0.05323407 0.48381385 0.31696 -0.23933157 0.0070160385 0.26421115 -0.06690219 0.038302444
-0.24043986 0.23035124 -0.01818001 0.42559218 -0.03436437 0.22214527 -0.024348257 0.6299774
00000000: f80b 5abd 73b6 f73e 9548 a23e 5613 75be
00000010: cce6 e53b af46 873e 0404 89bd 06e3 1c3d
00000020: de35 76be 32e1 6b3e 3fee 94bc 38e7 d93e
00000030: a7c1 0cbd 0d7a 633e ff75 c7bc 3346 213f

bn3.running_var f4 [16]
0.050710343 0.25801092 0.13195488 0.067958005 0.15004814 0.08832802 0.07769079 0.08212895
0.107531324 0.1385892 0.15241615 0.088314705 0.095132664 0.07221957 0.13647272 0.18362218
00000000: a6b5 4f3d 021a 843e 2e1f 073e 912d 8b3d
00000010: 38a6 193e 52e5 b43d 591c 9f3d 3933 a83d
00000020: 6239 dc3d 54ea 0d3e fb12 1c3e 57de b43d
00000030: ead4 c23d dbe7 933d 81bf 0b3e 7407 3c3e

fc.weight f4 [10, 320]
-0.13182817 -0.23996401 -0.22659558 -0.112450905 -0.11309767 -0.031250276 -0.007908628 -0.07308126
-0.039641224 -0.037341945 -0.10840816 0.07906905 0.07586434 -0.05770576 0.050461724 -0.04968757
-0.060677618 0.0044252826 0.037721295 -0.047113948 -0.075704016 -0.112581655 -0.025546107 0.059600767
0.16095231 0.15491457 0.1615439 0.12668884 0.18474701 0.02774714 -0.010959855 0.08650483
-0.059229355 0.0252663 0.06900112 0.004673436 0.017789507 -0.1120157 0.045353148 -0.014599173
-0.050366975 -0.12797232 -0.079746 -0.048137892 0.07146285 0.056674857 0.086191006 0.06232637
0.14489381 -0.034199912 0.035181656 0.044926867 -0.028601045 -0.036093067 0.029065624 0.05431647
-0.006705248 0.035765328 0.04543645 0.09046797 -0.058777556 -0.1225791 -0.18902045 -0.023624094
0.03783063 0.09840862 0.14346659 0.06579242 -0.025184702 -0.023154898 -0.05394151 -0.09866195
-0.16079608 -0.1684832 -0.09383781 -0.06725358 -0.038722984 0.004567298 0.04317936 -0.06991598
0.07173236 0.04529641 0.013846827 0.13080224 -0.0117299445 -0.02029068 -0.092738405 -0.04424507
-0.0473136 0.004518287 -0.09408759 -0.050452955 -0.053045068 0.054774314 -0.07607417 0.031750802
-0.0077889897 -0.020882357 -0.0029727125 0.03841969 0.0043691257 -0.059121247 -0.06449202 -0.123116925
-0.1124902 -0.1168357 -0.0270481 -0.024282234 -0.012296033 -0.0435143 0.0015258375 -0.014164441
-0.008910068 0.032085765 -0.10212244 -0.057176474 -0.051280852 -0.069579035 0.020992775 0.037531957
0.04451484 -0.0710235 -0.06316538 -0.16466539 -0.082622044 -0.11172605 0.016998224 -0.040854998
-0.0028453742 0.03536646 -0.04060129 -0.12218584 -0.068912864 -0.021584649 -0.028365267 0.003412154
-0.054159354 -0.045331646 0.0010839015 0.0025437702 -0.10545877 0.14440212 0.14900094 0.09514576
-0.046699904 -0.07517601 -0.07631722 -0.025977472 0.018533168 -0.053154968 0.0456049 0.03509239
-0.049617205 -0.10098614 -0.10570508 -0.05618163 -0.1298383 -0.08668069 -0.0007562933 0.0055400147
0.0014204278 0.113103844 0.15414089 0.053815134 -0.023371806 -0.0063839504 -0.035433576 -0.033608593
0.026085278 -0.0050663846 0.027725592 0.012239928 -0.085973635 0.019909414 -0.04359776 -0.047123346
-0.12704654 -0.09937758 0.04078813 -0.07039894 -0.11396034 -0.07192844 0.026843244 0.10653249
0.13937558 0.088038564 0.10077132 0.15950018 0.19897261 -0.027734863 0.13176365 0.020254405
-0.019258972 0.04867302 -0.08529594 -0.09465648 0.009585255 0.030494442 0.04551245 -0.0682138
-0.093871884 -0.10172611 -0.112080194 -0.14554293 -0.060218494 -0.040847488 0.016906915 0.03832613
-0.0008547193 -0.054546267 -0.041837435 0.08415436 0.060409695 0.10784577 -0.008154687 -0.0957684
-0.15180652 -0.054815244 -0.051366854 -0.11307388 -0.05378785 -0.19389693 -0.102898754 0.010178489
0.06122385 -0.063149974 0.039707027 0.090576395 0.053174913 -0.05666792 0.036848813 -0.0867683
-0.07134018 -0.028712913 -0.007350057 0.010972272 0.041405346 0.085888594 0.0323719 0.09209807
-0.001418487 -0.085575484 -0.14813022 -0.051259246 0.012608641 0.018787805 -0.010852118 0.02157179
-0.03076699 -0.016305288 0.047511805 0.05794097 0.12278328 0.07402608 0.052804194 0.01727602
00000000: f7fd 06be 20b9 75be ac08 68be a94c e6bd
00000010: c09f e7bd 4a00 00bd 3193 01bc a1ab 95bd
00000020: d65e 22bd def3 18bd 1905 debd f4ee a13d
00000030: c35e 9b3d e05c 6cbd f4b0 4e3d 3285 4bbd
00000040: 1889 78bd f601 913b a581 1a3d 8efa 40bd
00000050: b50a 9bbd 3691 e6bd 1246 d1bc ef1f 743d
00000060: afd0 243e eda1 1e3e c46b 253e b8ba 013e
00000070: 522e 3d3e f84d e33c f790 33bc 7229 b13d
00000080: 7b9a 72bd 46fb ce3c 7650 8d3d 9f23 993b
00000090: 4dbb 913c 7d68 e5bd 39c4 393d 5f31 6fbc
000000a0: 9a4d 4ebd 2d0b 03be df51 a3bd 3d2c 45bd
000000b0: 1d5b 923d e523 683d e984 b03d f049 7f3d
000000c0: 0b5f 143e 3515 0cbd a41a 103d 3c05 383d
000000d0: bd4c eabc 53d6 13bd 081b ee3c f27a 5e3d
000000e0: b2b7 dbbb aa7e 123d 921b 3a3d 4547 b93d
000000f0: bcc0 70bd c00a fbbd 948e 41be 5187 c1bc
00000100: 4af4 1a3d 758a c93d e8e8 123e 2dbe 863d
00000110: 2650 cebc 57af bdbc c6f1 5cbd 470f cabd
00000120: baa7 24be dc86 2cbe 0a2e c0bd 3fbc 89bd
00000130: fe9b 1ebd 46a9 953b d7dc 303d 1c30 8fbd
00000140: 6ae8 923d ba88 393d cddd 623c 06f1 053e
00000150: f42e 40bc a438 a6bc a2ed bdbd 523a 35bd
00000160: e8cb 41bd 230e 943b ffb0 c0bd c2a7 4ebd
00000170: c945 59bd 085b 603d c6cc 9bbd 210d 023d
00000180: c83a ffbb 7a11 abbc d7d1 42bb f75d 1d3d
00000190: e22a 8f3b 1f29 72bd 6414 84bd ba24 fcbd
000001a0: 4361 e6bd 8e47 efbd fa93 ddbc 89eb c6bc
000001b0: 4d75 49bc 0d3c 32bd 9cfe c73a f911 68bc
000001c0: 89fb 11bc 5d6c 033d 9225 d1bd e131 6abd
000001d0: df0b 52bd 747f 8ebd 0af9 ab3c 1cbb 193d
000001e0: 3155 363d c574 91bd da5c 81bd 0b9e 28be
000001f0: bf35 a9bd a1d0 e4bd dc3f 8b3c 9257 27bd
00000200: 7579 3abb 6cdc 103d 8a4d 26bd 923c fabd
00000210: 3022 8dbd 4ad2 b0bc 475e e8bc 729e 5f3b
00000220: 33d6 5dbd adad 39bd b311 8e3a 62b5 263b
00000230: c5fa d7bd 26de 133e b493 183e c8db c23d
00000240: 6648 3fbd e1f5 99bd 344c 9cbd b5ce d4bc
00000250: dfd2 973c 06b9 59bd 34cc 3a3d 0abd 0f3d
00000260: 693b 4bbd d2d1 cebd e87b d8bd b51e 66bd
00000270: 55f4 04be a585 b1bd fc41 46ba 0389 b53b
00000280: a62d ba3a fda2 e73d 1cd7 1d3e 426d 5c3d
00000290: 3b76 bfbc 7530 d1bb cc22 11bd 2aa9 09bd
000002a0: cbb0 d53c ea03 a6bb c820 e33c fb89 483c
000002b0: f212 b0bd 1119 a33c 9193 32bd 6904 41bd
000002c0: 7d18 02be 7986 cbbd 7411 273d 522d 90bd
000002d0: 0a64 e9bd 384f 93bd 5de6 db3c b52d da3d
000002e0: 79b8 0e3e 904d b43d 3261 ce3d 0454 233e
000002f0: 7abf 4b3e 3934 e3bc 0ded 063e 91ec a53c
00000300: fec4 9dbc 5c5d 473d a3af aebd 42db c1bd
00000310: 790b 1d3c 7bcf f93c 436b 3a3d adb3 8bbd
00000320: e73f c0bd c755 d0bd 4d8a e5bd 3509 15be
00000330: aba7 76bd b24f 27bd 5f80 8a3c dcfb 1c3d
00000340: 3e0f 60ba e86b 5fbd bb5d 2bbd 1f59 ac3d
00000350: 2870 773d 3ede dc3d 3c9b 05bc 3922 c4bd
00000360: 2b73 1bbe f385 60bd 0d66 52bd 4793 e7bd
00000370: a650 5cbd eb8c 46be 95bc d2bd adc3 263c
00000380: dcc5 7a3d c654 81bd d6a3 223d 1e80 b93d
00000390: f0cd 593d 9f1c 68bd c8ee 163d 94b3 b1bd
000003a0: cd1a 92bd 5837 ebbc bfd8 f0bb 0bc5 333c
000003b0: a798 293d 5ce6 af3d 6698 043d ea9d bc3d
000003c0: 87ec b9ba 3342 afbd 73af 17be 37f5 51bd
000003d0: 7994 4e3c e2e8 993c 15cd 31bc 53b7 b03c
000003e0: 0e0b fcbc ab92 85bc bd9b 423d 8353 6d3d
000003f0: cd75 fb3d fc9a 973d 3649 583d 7186 8d3c

fc.bias f4 [10]
-0.059945293 0.027962646 0.0049441103 -0.031600628 -0.01630838 0.023048 0.030315569 -0.04537111
-0.058857698 -0.039182592
00000000: 3289 75bd eb11 e53c 3402 a23b a96f 01bd
00000010: 2799 85bc 29cf bc3c 5b58 f83c 0fd7 39bd
00000020: c514 71bd ed7d 20bd
