audio_mnist_cnn_speakers.pth (torch, 27403 bytes, 20 tensors)

conv1.weight f4 [4, 1, 3, 3]
-0.2161707 0.065033235 -0.073263034 0.22099939 0.02440124 0.23566781 -0.10476386 0.25894538
-0.14279084 -0.18079673 -0.19096957 0.29737034 0.16513415 0.33528438 -0.27387527 -0.34908342
-0.37145042 -0.3384541 0.24678941 0.19561645 0.2921296 -0.1365176 -0.18818049 0.218553
-0.21210983 0.051669467 -0.252101 0.1821632 -0.19539882 -0.13605948 0.15443128 0.19933346
0.05927802 0.36297444 0.29539067 -0.08702116
00000000: da5b 5dbe 2530 853d ee0a 96bd aa4d 623e
00000010: 1ce5 c73c e752 713e 6f8e d6bd 7d94 843e
00000020: c337 12be c722 39be 878d 43be ed40 983e
00000030: ed18 293e 65aa ab3e 6139 8cbe 10bb b2be
00000040: c02e bebe db49 adbe 5db6 7c3e ae4f 483e
00000050: 0392 953e 45cb 0bbe 63b2 40be 5ccc 5f3e
00000060: 5233 59be 5da3 533d 6213 81be fd88 3a3e
00000070: a116 48be 2d53 0bbe 3c23 1e3e 121e 4c3e
00000080: 82cd 723d c9d7 b93e 723d 973e 2638 b2bd

conv1.bias f4 [4]
-0.17198266 0.29933298 -0.11316918 -0.11983399
00000000: 391c 30be 2c42 993e 3ec5 e7bd 866b f5bd

bn1.weight f4 [4]
0.9606247 1.0277678 1.161062 0.9113943
00000000: 80eb 753f e58d 833f ae9d 943f 2351 693f

bn1.bias f4 [4]
-0.022313977 0.0002619813 -0.11385989 -0.01822487
00000000: cdcb b6bc 895a 8939 602f e9bd 534c 95bc

bn1.running_mean f4 [4]
-9.5379505 -3.5072947 -22.497456 -10.992992
00000000: 729b 18c1 8477 60c0 cafa b3c1 4ce3 2fc1

bn1.running_var f4 [4]
7654.349 2515.6917 14724.633 5135.968
00000000: cb32 ef45 113b 1d45 8812 6646 be7f a045

conv2.weight f4 [8, 4, 3, 3]
-0.14904027 -0.12295196 -0.016573409 0.0083218515 -0.078459136 0.038356513 -0.32057807 -0.36420703
-0.2780739 -0.07484766 -0.09976311 0.18177105 -0.0679101 -0.029212521 -0.1648826 0.073702514
0.04510349 0.13085528 -0.12355433 -0.12209809 -0.11346421 0.028948834 -0.0784222 -0.04471784
-0.028874695 -0.01437153 -0.012296623 0.017529014 -0.093158 0.088197164 0.03096536 0.21278371
0.101338096 -0.251794 -0.073797554 -0.14835118 -0.11302995 -0.17320618 -0.17700642 0.022177145
-0.046125203 0.080816604 -0.0014989602 0.1625453 -0.10808149 0.06553394 0.08059755 0.11639606
0.027961297 0.017743748 -0.20024046 -0.074395716 -0.18350172 -0.13028707 0.021658247 0.17347671
-0.1551474 0.026670238 -0.007978295 -0.011973437 -0.07407837 0.2285155 0.14338994 -0.04251074
-0.16585574 0.06988676 0.012784002 -0.054605786 0.20027216 0.054311533 -0.18393107 -0.15608983
-0.02239769 0.05884865 -0.061335724 -0.098961875 -0.09800181 -0.13449101 -0.022263402 0.08961117
-0.10154309 0.033252895 0.12915194 0.07121409 0.03831384 0.103014685 0.03872225 0.0010280102
-0.06427099 -0.047859017 0.06231785 -4.383875e-05 -0.0030714604 0.26282334 0.24193873 0.00045043172
-0.12505901 -0.08269401 -0.05887248 0.052632418 0.015171493 -0.1636608 -0.074007295 0.08527282
0.06176031 -0.066967316 -0.07639831 -0.0748769 -0.13385375 -0.061012186 0.05399596 0.12270713
0.08343804 -0.12905775 -0.4631382 -0.24109909 0.013051607 0.008425091 -0.043066945 0.037796166
-0.105110094 -0.13245495 0.13783492 -0.004250516 0.0042546783 -0.21822315 0.17240264 0.16981202
0.10517901 -0.1794873 -0.19816875 -0.09166571 0.30390304 0.15546241 0.050683744 0.069368765
0.020569313 -0.022672202 -0.045527656 -0.096680395 -0.09688557 -0.032172315 -0.20059417 -0.13616325
-0.09091221 -0.025548551 -0.1120506 -0.12402351 -0.0040161717 -0.09992668 0.07409204 -0.074547775
-0.07902609 -0.1292005 -0.107717924 -0.044347018 -0.19177525 0.21282023 0.01788586 0.01938213
0.0001549484 0.09764885 -0.070051275 0.06880411 -0.17384431 0.13244204 0.2678539 0.08698892
0.0026444437 -0.07403819 -0.09986894 0.10880244 -0.085908204 0.15279882 0.097905144 0.04287382
-0.14247642 -0.103725925 0.07215616 0.2037522 -0.16098362 0.006379877 -0.083509445 -0.058257394
-0.083344854 -0.08837271 0.16005784 0.00013184686 0.24002232 0.18035021 0.031112636 -0.01935032
-0.023114225 -0.07511021 -0.11251104 0.0940219 0.042551316 -0.056392975 -0.096341796 -0.06333473
-0.062875144 -0.26777127 -0.21848989 -0.20341648 -0.038310084 -0.06888686 0.17471713 -0.08385919
0.07783549 -0.01824541 -0.03040588 0.14646392 0.024030715 0.1635905 0.29309705 0.26544684
-0.041320067 0.030124025 0.11352431 -0.027563358 -0.028685976 -0.22895592 -0.22396532 -0.025969723
-0.0040605427 -0.101670526 -0.23396538 -0.09154859 -0.18457729 -0.18108895 -0.019704986 0.10561176
-0.047075376 -0.10205999 0.09230299 0.16983332 -0.15292647 -0.04878718 0.0920161 0.05133681
0.10423507 -0.04554077 -0.12080437 -0.050737467 -0.14126298 0.005946751 -0.03983925 0.13484655
-0.13802849 -0.17700711 0.10647925 0.17941092 0.07228596 0.070868775 0.041585293 -0.21397617
00000000: 039e 18be 3dce fbbd f5c4 87bc 6058 083c
00000010: 2faf a0bd b81b 1d3d cf22 a4be 5879 babe
00000020: b45f 8ebe bb49 99bd 9a50 ccbd 3122 3a3e
00000030: 7314 8bbd 194f efbc fcd6 28be 58f1 963d
00000040: 70be 383d edfe 053e 0d0a fdbd 900e fabd
00000050: ec5f e8bd 1b26 ed3c d29b a0bd 0e2a 37bd
00000060: a08a ecbc 9176 6bbc c677 49bc 0299 8f3c
00000070: 9fc9 bebd b7a0 b43d 11ab fd3c f9e3 593e
00000080: 598a cf3d 25eb 80be 2c23 97bd 5fe9 17be
00000090: 3f7c e7bd f65c 31be 2c41 35be d8ac b53c
000000a0: c8ed 3cbd 2d83 a53d c278 c4ba 4672 263e
000000b0: d459 ddbd a936 863d 5410 a53d 0f61 ee3d
000000c0: 170f e53c 565b 913c d60b 4dbe c85c 98bd
000000d0: e0e7 3bbe f969 05be a36c b13c e1a3 313e
000000e0: f6de 1ebe 8b7b da3c 65b7 02bc 3c2c 44bc
000000f0: 67b6 97bd f8ff 693e d0d4 123e be1f 2ebd
00000100: 16d6 29be ca20 8f3d fe73 513c 51aa 5fbd
00000110: 2514 4d3e c575 5e3d 6d58 3cbe 03d6 1fbe
00000120: 5c7b b7bc 480b 713d 2b3b 7bbd 86ac cabd
00000130: 2cb5 c8bd 03b8 09be bd61 b6bc 1086 b73d
00000140: d3f5 cfbd 3034 083d 6840 043e b1d8 913d
00000150: f9ee 1c3d 5df9 d23d 399b 1e3d 4cbe 863a
00000160: 82a0 83bd d107 44bd 0041 7f3d 80df 37b8
00000170: 8e4a 49bb c890 863e c9be 773e ec27 ec39
00000180: 780f 00be 7a5b a9bd 4524 71bd 1795 573d
00000190: db91 783c b296 27be 2391 97bd 84a3 ae3d
000001a0: 61f8 7c3d 2926 89bd b876 9cbd 0f59 99bd
000001b0: f510 09be eae7 79bd de2a 5d3d e04d fb3d
000001c0: 90e1 aa3d b727 04be 7320 edbe aee2 76be
000001d0: 68d6 553c 6509 0a3c f766 30bd 27d0 1a3d
000001e0: f643 d7bd 45a2 07be 9924 0d3e ea47 8bbb
000001f0: d46a 8b3b e475 5fbe 518a 303e 34e3 2d3e
00000200: 1868 d73d 85cb 37be c0ec 4abe 3bbb bbbd
00000210: 2e99 9b3e 8a31 1f3e c299 4f3d 3611 8e3d
00000220: fa80 a83c 0ebb b9bc 357b 3abd 5f00 c6bd
00000230: f16b c6bd 1ec7 03bd 8f68 4dbe 616e 0bbe
00000240: 2e30 babd 324b d1bc c97a e5bd 0a00 febd
00000250: 179a 83bb 5ca6 ccbd 91bd 973d 81ac 98bd
00000260: 6ed8 a1bd 234d 04be 379b dcbd 38a5 35bd
00000270: bb60 44be 8ced 593e 5e85 923c 46c7 9e3c
00000280: a579 2239 1ffc c73d 0b77 8fbd 2be9 8c3d
00000290: 3e04 32be e39e 073e 2524 893e 3f27 b23d
000002a0: 674e 2d3b 56a1 97bd 1688 ccbd d0d3 de3d
000002b0: a4f0 afbd 4b77 1c3e 7e82 c83d 759c 2f3d
000002c0: 57e5 11be 426e d4bd 9cc6 933d 6ba4 503e
000002d0: e4d8 24be 4a0e d13b 0007 abbd 4e9f 6ebd
000002e0: b5b0 aabd c0fc b4bd 34e6 233e 5f40 0a39
000002f0: 69c8 753e baad 383e eddf fe3c 9084 9ebc
00000300: 0b5a bdbc 62d3 99bd 306c e6bd 8e8e c03d
00000310: 4a4a 2e3d 52fc 66bd d94e c5bd a4b5 81bd
00000320: afc4 80bd 5119 89be d0bb 5fbe 694c 50be
00000330: 09eb 1cbd 8e14 8dbd 0ce9 323e 5ebe abbd
00000340: 3768 9f3d 6677 95bc c115 f9bc a3fa 153e
00000350: 10dc c43c 4584 273e d110 963e a6e8 873e
00000360: 3b3f 29bd a9c6 f63c 6f7f e83d 8dcc e1bc
00000370: dafe eabc 6c73 6abe 2a57 65be 75be d4bc
00000380: 4d0e 85bb a338 d0bd 9f94 6fbe d47d bbbd
00000390: d401 3dbe 626f 39be 5a6c a1bc fa4a d83d
000003a0: 1cd2 40bd d404 d1bd 5a09 bd3d c9e8 2d3e
000003b0: c298 1cbe 11d5 47bd f072 bc3d 8c46 523d
000003c0: 3279 d53d f588 3abd 4868 f7bd 17d2 4fbd
000003d0: 3ea7 10be f7dc c23b 7b2e 23bd 3715 0a3e
000003e0: 5757 0dbe 5a41 35be cb11 da3d 7fb7 373e
000003f0: a90a 943d a623 913d 5755 2a3d 921c 5bbe

conv2.bias f4 [8]
-0.028686378 0.08363558 -0.08749314 -0.015484998 -0.056996334 0.11563879 0.031988394 0.05805748
00000000: b2ff eabc 2249 ab3d 9a2f b3bd cab4 7dbc
00000010: fd74 69bd 08d4 ec3d 4306 033d aecd 6d3d

bn2.weight f4 [8]
1.0838306 0.9999253 1.0352745 0.98215055 1.015659 0.98748213 0.93762064 0.9326221
00000000: f6ba 8a3f 1bfb 7f3f e083 843f 386e 7b3f
00000010: 1d01 823f a1cb 7c3f e807 703f 52c0 6e3f

bn2.bias f4 [8]
-0.007705786 -0.011683921 -0.22556363 0.019891491 -0.10343838 -0.1407638 -0.009257124 0.020667704
00000000: d180 fcbb eb6d 3fbc 27fa 66be 7bf3 a23c
00000010: 80d7 d3bd 6324 10be 31ab 17bc 514f a93c

bn2.running_mean f4 [8]
-0.32830653 -0.069155134 -0.023828264 -0.23565076 -0.13671441 -0.010321597 -0.3774994 -0.010597293
00000000: cb17 a8be 35a1 8dbd 7e33 c3bc 6f4e 71be
00000010: ddfe 0bbe ea1b 29bc 9a47 c1be 45a0 2dbc

bn2.running_var f4 [8]
0.07695871 0.08729365 0.03439485 0.07239191 0.040913444 0.088893056 0.13753255 0.02697893
00000000: 879c 9d3d 03c7 b23d 9de1 0c3d 3642 943d
00000010: db94 273d 900d b63d 55d5 0c3e eb02 dd3c

conv3.weight f4 [16, 8, 3, 3]
0.0113440035 -0.07339131 0.006040231 -0.044830397 -0.040450644 0.040691618 -0.006490965 -0.09982913
0.022758016 0.003828052 -0.08443592 -0.11950143 -0.101265654 -0.037119538 0.043646872 -0.031692713
-0.045821633 0.014429945 0.187892 0.15386447 -0.14961098 -0.042306058 0.089566596 0.05984762
-0.0135836685 0.0064745485 -0.08928718 -0.073828556 0.042111825 0.09055023 0.030012293 0.040862307
-0.018723883 -0.07253802 0.021692596 0.02278771 -0.10381348 -0.15230559 0.022100523 -0.041497342
-0.009373755 -0.039339155 0.041050255 0.034646183 -0.030121678 -0.067807145 0.043477364 -0.004860692
0.07176901 0.1401083 -0.011857633 -0.12926123 0.027876941 -0.030354269 0.013290633 0.026552733
-0.13585813 -0.05961346 0.06381233 0.10900107 0.098708294 0.00048992725 0.10538179 0.025901318
-0.06452209 0.07551041 0.058327403 0.09246099 -0.07341264 -0.038988236 0.025007116 -0.04517821
-0.15355454 -0.0032888472 -0.07520885 0.24045373 0.24871461 0.19305538 -0.008548519 0.040231302
0.12931961 -0.106166475 -0.056982167 0.034475386 0.07227812 0.05839625 0.0027172149 -0.009964723
0.105752565 0.04897155 -0.06134472 0.14565478 0.1057792 0.07937205 0.091326 0.0016843813
-0.034930747 -0.0061068446 -0.06358597 0.032960974 0.039865755 0.1749687 -0.045056116 -0.13424292
-0.16833605 0.06956152 0.016945355 0.049805228 0.113238975 0.1662131 0.039630525 0.0016332327
0.0069438573 -0.019986095 -0.14952806 0.0010740682 -0.044454258 0.033726588 -0.069123074 -0.07622397
-0.024866123 0.11710228 -0.035977338 -0.021123366 -0.09003678 0.060822118 -0.038838107 0.054250736
0.0542602 0.0601194 -0.056061924 -0.015356771 -0.057663314 -0.09483922 -0.10861195 0.080177575
0.010445082 -0.026022194 0.06549986 0.07689885 0.015909277 -0.07300599 -0.036782157 -0.034907226
0.29132217 0.06263286 -0.036978263 0.0129628675 0.02340415 0.010179571 -0.0840279 0.01785601
0.052455805 0.14359935 -0.015255323 -0.09987248 0.18378972 0.097197704 0.053878337 -0.07883219
-0.06985498 0.100971974 0.05823976 0.050448652 0.102046296 0.1402333 0.08273909 -0.0967685
-0.02617642 0.009664702 -0.03580872 -0.12498048 -0.058205895 -0.037537288 -0.027376408 -0.037337113
-0.111474976 -0.060428057 0.09901797 0.08012035 -0.060400106 -0.078570046 0.17115691 -0.010323107
-0.013961995 0.12985018 -0.07567455 -0.03496819 0.06911655 0.09144541 0.07206659 -0.09588343
0.14411436 0.10226862 0.026777485 -0.033226322 0.07000712 -0.15117566 0.09461972 0.059596412
-0.025331244 -0.01723382 -0.039102353 0.034913182 0.019562516 0.0134917535 0.03558729 -0.102022424
-0.046758737 -0.029701572 -0.06653558 -0.026964143 -0.0090147555 -0.017001532 -0.08227966 -0.07608878
-0.032401465 -0.10433887 0.115907654 -0.019453095 -0.12049202 -0.046753272 -0.10921068 -0.03716314
0.04166197 -0.100196615 -0.1392558 -0.103751436 -0.036504574 -0.06616256 -0.1265199 0.10009355
0.0005050089 -0.1773446 0.056642152 -0.0430853 -0.073610775 0.1215327 0.13960262 -0.107610285
0.024381455 -0.068087675 -0.03648129 -0.10256244 0.09745545 0.099766545 0.0065105082 -0.045365468
-0.073795535 -0.045097657 -0.050580863 0.08912344 -0.042620543 0.11862704 -0.009621967 0.13603193
00000000: 33dc 393c 2f4e 96bd 21ed c53b 14a0 37bd
00000010: 93af 25bd 41ac 263d 29b2 d4bb 3773 ccbd
00000020: 056f ba3c 0ee0 7a3b bdec acbd 2abd f4bd
00000030: 5e64 cfbd a80a 18bd 10c7 323d 38d0 01bd
00000040: 77af 3bbd 936b 6c3c c366 403e a68e 1d3e
00000050: 9f33 19be 1e49 2dbd b16e b73d c722 753d
00000060: 098e 5ebc 7328 d43b 32dc b6bd 6d33 97bd
00000070: 737d 2c3d 6672 b93d 57dc f53c 3c5f 273d
00000080: d462 99bc d08e 94bd acb4 b13c 4bad ba3c
00000090: 299c d4bd fff5 1bbe 280c b53c 1ef9 29bd
000000a0: 6194 19bc 1822 21bd 5024 283d 28e9 0d3d
000000b0: bdc1 f6bc 79de 8abd 5215 323d 7146 9fbb
000000c0: a1fb 923d 8d78 0f3e 8446 42bc 0e5d 04be
000000d0: 2f5e e43c 84a9 f8bc f5c0 593c 1e85 d93c
000000e0: 651e 0bbe 3e2d 74bd 0ab0 823d f43b df3d
000000f0: 9327 ca3d 766e 003a 68d2 d73d 002f d43c
00000100: 2824 84bd 34a5 9a3d b7e8 6e3d 305c bd3d
00000110: 5e59 96bd 21b2 1fbd b9db cc3c c90c 39bd
00000120: 673d 1dbe b389 57bb 1907 9abd 8139 763e
00000130: 0baf 7e3e 4fb0 453e 160f 0cbc 94c9 243d
00000140: 5c6c 043e cf6d d9bd 2266 69bd 1036 0d3d
00000150: 8d06 943d e830 6f3d 4d13 323b 1443 23bc
00000160: cd94 d83d 6496 483d 9a44 7bbd 8726 153e
00000170: c4a2 d83d d08d a23d 2009 bb3d 75c6 dc3a
00000180: 8b13 0fbd ed1b c8bb 5c39 82bd 1602 073d
00000190: 464a 233d ff2a 333e c38c 38bd fa76 09be
000001a0: 4960 2cbe 4576 8e3d fcd0 8a3c 9100 4c3d
000001b0: d6e9 e73d c433 2a3e 9e53 223d 3212 d63a
000001c0: 4c89 e33b e1b9 a3bc e21d 19be c0c7 8c3a
000001d0: ab15 36bd e424 0a3d 6690 8dbd 501b 9cbd
000001e0: 0ab4 cbbc 52d3 ef3d f95c 13bd e90a adbc
000001f0: 3465 b8bd 9d20 793d b514 1fbd 0536 5e3d
00000200: f23f 5e3d c33f 763d 30a1 65bd f79a 7bbc
00000210: 5e30 6cbd 113b c2bd f16f debd 2434 a43d
00000220: d921 2b3c 7f2c d5bc ca24 863d 257d 9d3d
00000230: 2c54 823c 2a84 95bd e3a8 16bd e1fa 0ebd
00000240: 2e28 953e a845 803d 8576 17bd 3562 543c
00000250: 0fba bf3c 37c8 263c d216 acbd c446 923c
00000260: e6db 563d b50b 133e 76f1 79bc f189 ccbd
00000270: 5f33 3c3e 970f c73d 88af 5c3d c572 a1bd
00000280: 2110 8fbd 65ca ce3d d18c 6e3d 3fa3 4e3d
00000290: a6fd d03d 5199 0f3e 1d73 a93d 902e c6bd
000002a0: ee6f d6bc b358 1e3c 2aac 12bd c4f5 ffbd
000002b0: 4e69 6ebd b3c0 19bd 7d44 e0bc cdee 18bd
000002c0: fe4c e4bd 6983 77bd efc9 ca3d 2316 a43d
000002d0: 1a66 77bd 55e9 a0bd c243 2f3e 4022 29bc
000002e0: dac0 64bc 72f7 043e 42fb 9abd ce3a 0fbd
000002f0: fa8c 8d3d bb47 bb3d a697 933d 885e c4bd
00000300: b792 133e 3672 d13d 755c db3c 5318 08bd
00000310: e55f 8f3d cbcd 1abe fcc7 c13d 5e1b 743d
00000320: 7883 cfbc f12d 8dbc ca29 20bd 2001 0f3d
00000330: 9241 a03c 840c 5d3c fac3 113d 22f1 d0bd
00000340: 1786 3fbd b650 f3bc ce43 88bd e8e3 dcbc
00000350: a0b2 13bc cc46 8bbc 3d82 a8bd 6fd4 9bbd
00000360: 66b7 04bd 9eaf d5bd fe60 ed3d 195c 9fbc
00000370: 85c4 f6bd 5c80 3fbd d9a9 dfbd 6038 18bd
00000380: bea5 2a3d e233 cdbd 1399 0ebe a27b d4bd
00000390: d285 15bd 3c80 87bd 6f8e 01be d9fd cc3d
000003a0: 9362 043a d399 35be 9a01 683d 367a 30bd
000003b0: 3fc1 96bd 23e6 f83d fdf3 0e3e c862 dcbd
000003c0: 9ebb c73c 8d71 8bbd 686d 15bd 420c d2bd
000003d0: b996 c73d 6752 cc3d 1a56 d53b 24d1 39bd
000003e0: 1d22 97bd 52b8 38bd e12d 4fbd 5a86 b63d
000003f0: e192 2ebd bcf2 f23d 74a5 1dbc f44b 0b3e

conv3.bias f4 [16]
0.091754675 -0.18616332 -0.09798238 0.015171351 0.014271876 0.01154958 0.021483915 0.07030275
0.11548202 -0.0473695 -0.10514999 -0.16468662 -0.09606383 -0.0064038946 0.042750742 0.037612632
00000000: e0e9 bb3d 99a1 3ebe fcaa c8bd 4291 783c
00000010: 96d4 693c 733a 3d3c 09ff af3c e3fa 8f3d
00000020: d681 ec3d 8506 42bd e158 d7bd 9ca3 28be
00000030: 1dbd c4bd c3d7 d1bb 671b 2f3d b40f 1a3d

bn3.weight f4 [16]
1.4093338 1.5439326 1.3284997 1.4578568 1.547385 1.4040847 1.2893643 1.5422857
1.4383671 1.4272492 1.5227636 1.4898293 1.331964 1.4238986 1.6101722 1.4396137
00000000: 0d65 b43f 959f c53f 470c aa3f 0d9b ba3f
00000010: b610 c63f 0cb9 b33f e409 a53f 9e69 c53f
00000020: 6a1c b83f 1ab0 b63f ebe9 c23f bab2 be3f
00000030: cc7d aa3f 4f42 b63f 1f1a ce3f 4345 b83f

bn3.bias f4 [16]
0.042527113 0.025159843 -0.013686366 0.018115206 0.090127036 0.0246043 0.0684636 0.08781377
0.11301362 0.032337353 0.025035087 0.011336669 0.014471835 0.009839332 0.1336435 0.009374934
00000000: e930 2e3d 041c ce3c c83c 60bc 5766 943c
00000010: 8694 b83d f58e c93c a536 8c3d b5d7 b33d
00000020: af73 e73d 2c74 043d 6216 cd3c 70bd 393c
00000030: 471b 6d3c 2635 213c d7d9 083e 5399 193c

bn3.running_mean f4 [16]
0.04186739 0.39831066 0.20609234 -0.30889478 -0.13860475 0.42337602 -0.09697128 -0.014498225
-0.39557618 0.39908588 -0.1709316 0.46799976 -0.027605444 0.5067117 0.023363544 0.5758591
00000000: 247d 2b3d 60ef cb3e df09 533e 7527 9ebe
00000010: 67ee 0dbe bec4 d83e e198 c6bd f789 6dbc
00000020: f688 cabe fc54 cc3e b108 2fbe aa9d ef3e
00000030: d024 e2bc dcb7 013f e764 bf3c 816b 133f

bn3.running_var f4 [16]
0.07356356 0.19501217 0.10719073 0.0780442 0.14317586 0.087476805 0.07341913 0.092718974
0.107661806 0.18428645 0.11663167 0.1033979 0.119283475 0.06890078 0.15134546 0.15754116
00000000: 7ea8 963d 45b1 473e d086 db3d a3d5 9f3d
00000010: b19c 123e 0a27 b33d c55c 963d 72e3 bd3d
00000020: cb7d dc3d 96b5 3c3e 96dc ee3d 47c2 d33d
00000030: e54a f43d da1b 8d3d 4efa 1a3e 7852 213e

fc.weight f4 [10, 320]
-0.13552096 -0.20842159 -0.19371095 -0.12485693 -0.04191266 -0.002710877 0.03233965 0.009424728
0.06146483 -0.031856164 -0.09246392 0.12034856 0.06911054 -0.02846963 0.066801175 -0.0612674
-0.034709863 0.052711435 0.08789851 0.015581228 -0.08130956 -0.1019072 -0.028691072 0.06560632
0.18370584 0.16258352 0.15443088 0.13021553 0.1929015 0.02026814 -0.0059412275 0.10672666
0.008850982 0.104951784 0.1143081 0.039747927 0.04082166 -0.0618718 0.013077504 0.011252058
-0.07193013 -0.11988553 -0.11292742 -0.04443943 0.08728584 0.043636527 0.09975939 0.11268878
0.20290157 -0.04115168 0.093322575 0.08655602 -0.070667595 -0.11694248 -0.042292852 0.020079982
0.0038052702 0.061934456 0.08723613 0.08014924 -0.015412804 -0.043501616 -0.14414677 -0.13042438
-0.13674793 -0.045298778 0.062451947 -0.0029656275 -0.07138659 -0.052938286 -0.035367977 -0.11607405
-0.06711761 -0.08789126 -0.07283548 -0.0655435 -0.117518954 -0.084916145 0.027701115 -0.071704395
0.09865894 0.07869873 0.017029095 0.14225565 0.039980523 0.018701628 -0.0927899 -0.07783777
-0.05730413 -0.0018058415 -0.10775746 -0.099324055 -0.10192629 0.050793614 -0.0826504 0.003325778
-0.019404981 -0.018853527 -0.0024851954 0.07000624 0.03552125 -0.03894535 -0.050479952 -0.14997052
-0.15111808 -0.10768272 -0.031681407 -0.051585156 0.007725267 -0.051791582 0.018700622 -0.059809472
-0.06676464 -0.013084984 -0.14260738 -0.07112999 -0.05682118 -0.086414784 -0.017697737 0.030341256
0.0143760415 -0.096798904 -0.10127883 -0.16126569 -0.10081539 -0.14174077 -0.002528889 -0.062046777
-0.064765155 0.013101699 -0.01307335 -0.043008383 0.03610526 -0.015707768 0.030897759 0.025960378
0.016346695 -0.04653837 0.016490106 -0.003487423 -0.07322903 0.15335126 0.13025057 0.097491756
-0.04561001 -0.06077573 -0.094012156 -0.042225197 0.02582994 -0.02855634 0.03504343 0.03574108
-0.010504858 -0.12538037 -0.084726065 -0.06912757 -0.079353444 -0.07203328 0.014772802 0.02578011
0.02836381 0.10712888 0.12991808 0.065713026 -0.03391286 -0.028880602 -0.07803437 -0.030375699
0.030888116 0.03103394 0.052210674 0.022040838 -0.080312505 0.013293323 -0.033512987 -0.06968816
-0.14751007 -0.07474641 0.05447771 -0.066175714 -0.1176846 -0.072893165 0.035610233 0.113673754
0.1581452 0.1036487 0.11818896 0.16636224 0.19397047 -0.040155694 0.1761839 0.029545322
-0.022428611 0.05739572 -0.08740039 -0.06752296 0.032141782 0.019492859 0.07694729 -0.079829045
-0.09416089 -0.07874262 -0.09986448 -0.17230949 -0.10239789 -0.055900805 0.024613261 0.03633478
0.030125326 -0.0486309 -0.05435062 0.02666139 0.021149505 0.100104086 -0.010389501 -0.09982838
-0.16993336 -0.04641059 -0.057431653 -0.099625334 -0.06044368 -0.16388598 -0.12097611 0.0024267153
0.04853194 -0.046822533 0.0635414 0.0736367 0.011666831 -0.09503244 0.05194111 -0.051390253
-0.03479319 0.0017900179 -0.029538 -0.03598018 0.063765265 0.09417666 0.09026551 0.10101725
0.0018924219 -0.104637496 -0.106470935 -0.027637646 0.07722209 0.07357401 0.038204454 0.09212422
0.039556753 -0.019562406 0.08295001 -0.0070720487 0.025773251 0.031582255 -0.0325724 -0.07612674
00000000: 02c6 0abe 786c 55be 2a5c 46be fdb4 ffbd
00000010: 9cac 2bbd f8a8 31bb 9576 043d 2d6a 1a3c
00000020: 8cc2 7b3d 9c7b 02bd b95d bdbd 4e79 f63d
00000030: d489 8d3d 2439 e9bc 0ecf 883d 86f3 7abd
00000040: ee2b 0ebd f2e7 573d 2204 b43d 6848 7f3c
00000050: a085 a6bd b9b4 d0bd 8a09 ebbc 9b5c 863d
00000060: 621d 3c3e 4b7c 263e 2123 1e3e 3857 053e
00000070: f987 453e 5f09 a63c a1ae c2bb 8293 da3d
00000080: b603 113c f6f0 d63d 5d1a ea3d b9ce 223d
00000090: 9d34 273d 496d 7dbd 0743 563c 8d5a 383c
000000a0: 1b50 93bd 8b86 f5bd 7e46 e7bd 1f06 36bd
000000b0: ebc2 b23d 37bc 323d a74e cc3d 60c9 e63d
000000c0: 6ec5 4f3e aa8e 28bd e81f bf3d 4844 b13d
000000d0: 2cba 90bd 8a7f efbd 453b 2dbd c67e a43c
000000e0: d761 793b fcae 7d3d dba8 b23d 4925 a43d
000000f0: fc85 7cbc c02e 32bd 369b 13be f88d 05be
00000100: a607 0cbe 368b 39bd 9dcd 7f3d f95a 42bb
00000110: 2233 92bd d1d5 58bd 03de 10bd 3bb8 edbd
00000120: f574 89bd 5500 b4bd c52a 95bd ac3b 86bd
00000130: c7ad f0bd 84e8 adbd 73ed e23c c1d9 92bd
00000140: b30d ca3d cd2c a13d 9a80 8b3c 77ab 113e
00000150: 9ec2 233d 2834 993c a208 bebd 6969 9fbd
00000160: bcb7 6abd fcb1 ecba f1af dcbd 696a cbbd
00000170: bbbe d0bd f70c 503d 9d44 a9bd 4cf5 593b
00000180: 32f7 9ebc b672 9abc a9de 22bb 6e5f 8f3d
00000190: bb7e 113d 2985 1fbd 11c4 4ebd df91 19be
000001a0: b3be 1abe c288 dcbd 5dc4 01bd f54a 53bd
000001b0: 3d24 fd3b 6923 54bd 0c32 993c c7fa 74bd
000001c0: e6bb 88bd 6762 56bc ab07 12be 9aac 91bd
000001d0: 53bd 68bd 3cfa b0bd d8fa 90bc 3a8e f83c
000001e0: 7d89 6b3c 813e c6bd 466b cfbd d522 25be
000001f0: 4d78 cebd 7e24 11be b8bb 25bb c324 7ebd
00000200: 98a3 84bd 82a8 563c 9b31 56bc 8f29 30bd
00000210: 1ce3 133d 94ad 80bc 4c1d fd3c dcaa d43c
00000220: 81e9 853c 059f 3ebd 4216 873c 408d 64bb
00000230: 1af9 95bd 1d08 1d3e 6860 053e c2a9 c73d
00000240: 90d1 3abd f9ef 78bd 7289 c0bd 54f4 2cbd
00000250: 4f99 d33c fcee e9bc b389 0f3d 3d65 123d
00000260: 911c 2cbc b663 00be dc84 adbd c192 8dbd
00000270: 0f84 a2bd 2f86 93bd 9f09 723c cf30 d33c
00000280: 395b e83c 6366 db3d 3f09 053e 8d94 863d
00000290: 36e8 0abd 0397 ecbc 7cd0 9fbd 75d6 f8bc
000002a0: 1309 fd3c e43a fe3c dcda 553d fd8e b43c
000002b0: e27a a4bd 3dcc 593c ea44 09bd abb8 8ebd
000002c0: e10c 17be a514 99bd 0524 5f3d 2287 87bd
000002d0: a004 f1bd 0349 95bd 09dc 113d c9cd e83d
000002e0: d1f0 213e c545 d43d 0e0d f23d dd5a 2a3e
000002f0: 32a0 463e 4c7a 24bd 8d69 343e 0809 f23c
00000300: 35bc b7bc c617 6b3d fafe b2bd 7a49 8abd
00000310: 1aa7 033d 7daf 9f3c 8a96 9d3d 697d a3bd
00000320: 6dd7 c0bd d043 a1bd c085 ccbd e671 30be
00000330: fcb5 d1bd 3ef8 64bd c0a1 c93c c7d3 143d
00000340: 63c9 f63c 3231 47bd c19e 5ebd fd68 da3c
00000350: ba41 ad3c 5f03 cd3d ba38 2abc d272 ccbd
00000360: 0303 2ebe 0819 3ebd 743d 6bbd 5e08 ccbd
00000370: cb93 77bd bad1 27be 53c2 f7bd 8709 1f3b
00000380: 6dc9 463d fcc8 3fbd fe21 823d d7ce 963d
00000390: 3c26 3f3c 5ea0 c2bd 34c0 543d 967e 52bd
000003a0: 4e83 0ebd 099f ea3a adf9 f1bc f45f 13bd
000003b0: 5d97 823d b1df c03d 20dd b83d 22e2 ce3d
000003c0: 240b f83a 2f4c d6bd 6f0d dabd 5868 e2bc
000003d0: 9d26 9e3d f8ad 963d 467c 1c3d a0ab bc3d
000003e0: 4306 223d 5741 a0bc b2e1 a93d a5bc e7bb
000003f0: 6d22 d33c 655c 013d a36a 05bd 56e8 9bbd

fc.bias f4 [10]
-0.06523628 0.02200538 0.0004076072 -0.025381679 -0.014648482 0.02295953 0.030775482 -0.04435297
-0.06205718 -0.03915351
00000000: 999a 85bd a044 b43c 1db4 d539 3ded cfbc
00000010: 3000 70bc a015 bc3c dd1c fc3c 76ab 35bd
00000020: ab2f 7ebd 6e5f 20bd
