audio_mnist_cnn.pth (torch, 27078 bytes, 20 tensors)

conv1.weight f4 [4, 1, 3, 3]
0	0xbd0618b1	-0.03273839
1	0x3ec42ddf	0.38316247
2	0x3e60314b	0.21893804
3	0xbc2f9f21	-0.010719092
4	0xbe14c7ec	-0.14529389
5	0xbd288865	-0.0411457
6	0x3d6fee29	0.058576737
7	0xbd94fe32	-0.072750464
8	0x3e4a279e	0.19741675
9	0x3d8b7884	0.06810096
10	0xbd44c976	-0.04804369
11	0xbde358f7	-0.11100953
12	0x3e9d0303	0.3066636
13	0xbcd4db40	-0.025983453
14	0x3d1fcd30	0.03901404
15	0x3ea1933f	0.31557652
16	0x3e37e717	0.17959248
17	0xbdbac6dc	-0.09119961
18	0x3dca2ada	0.098714545
19	0x3d9dd97a	0.07707496
20	0x3e5a9b16	0.21348223
21	0x3e8837a4	0.2660495
22	0xbe3b8ec3	-0.18316178
23	0xbe3d56de	-0.18490168
24	0xbe8ef984	-0.2792474
25	0xbe1cbb8e	-0.15305921
26	0x3e04610a	0.12927642
27	0x3e5be35e	0.21473452
28	0x3d0dc947	0.03461578
29	0x3ebf2728	0.3733456
30	0x3e9e8d0d	0.30966988
31	0xbc43a623	-0.011941466
32	0x3ea5bd5d	0.32371035
33	0x3e186f4b	0.14886205
34	0x3e46d0a4	0.19415528
35	0xbe0636b4	-0.13106805

conv1.bias f4 [4]
0	0xbc33b6ba	-0.010968858
1	0xb9e7bfec	-0.00044202746
2	0x3ca3eb9b	0.020009806
3	0x3d9a1d95	0.075251736

bn1.weight f4 [4]
0	0x3f7108cc	0.9415405
1	0x3f832d57	1.0248212
2	0x3f77543d	0.9661291
3	0x3f88c10f	1.0683917

bn1.bias f4 [4]
0	0xbda9ddac	-0.08294234
1	0x3da0ffba	0.07861276
2	0xbd260c12	-0.040538855
3	0x3e162c1a	0.14665261

bn1.running_mean f4 [4]
0	0xc15dd971	-13.865586
1	0xc118b6e6	-9.544653
2	0xc118b0a9	-9.54313
3	0xc237e319	-45.971775

bn1.running_var f4 [4]
0	0x461dae1f	10091.53
1	0x453ba68d	3002.4094
2	0x458b72a2	4462.329
3	0x468e2b5c	18197.68

conv2.weight f4 [8, 4, 3, 3]
0	0xbc9ccf4a	-0.019141812
1	0x3cd8a2eb	0.026444873
2	0x3d9a427b	0.075322114
3	0xbd7e3407	-0.062061336
4	0xbda630bb	-0.08114763
5	0x3dfa16a7	0.12211352
6	0x3e098a95	0.13431771
7	0x3dc12d84	0.094325095
8	0xbdc5c0bb	-0.09655901
9	0xbe0a89d1	-0.13529135
10	0xbd94f44e	-0.0727316
11	0xbd991e52	-0.07476486
12	0x3d134c2f	0.035961326
13	0x3c8fa37c	0.01753401
14	0xbde664d1	-0.11249698
15	0xbcf0e148	-0.029404297
16	0x3d4aab17	0.04947957
17	0x3cd588da	0.026066232
18	0x3bcd154d	0.0062586428
19	0x3db884b6	0.090096876
20	0x3e37d7dc	0.17953438
21	0x3db5c2e4	0.08875063
22	0xbe15b895	-0.14621194
23	0x3e213e2f	0.15746377
24	0x3dd0b892	0.10191454
25	0xbda9f50c	-0.08298692
26	0x3d39afc7	0.04533365
27	0xbd72737d	-0.05919217
28	0xbe013d32	-0.12621
29	0x3cadcb9b	0.02121525
30	0x3b449fc9	0.0030002466
31	0xbe071962	-0.13193277
32	0x3e1e14ae	0.15437576
33	0x3dc377d7	0.09544342
34	0x3df533e9	0.11972792
35	0xbdbd5c80	-0.092461586
36	0xbbfc5777	-0.0077008563
37	0x3e2166c9	0.15761866
38	0x3e100960	0.14066076
39	0xbdec804a	-0.11547907
40	0xbd822250	-0.06354201
41	0xbdf5633c	-0.11981818
42	0xbe1a7545	-0.15083797
43	0xbd74e93b	-0.05979274
44	0x3d20b07d	0.039230812
45	0xbd6c146d	-0.057636667
46	0xbe4dad67	-0.20085679
47	0xbe43983b	-0.1910104
48	0xbe581abe	-0.21103951
49	0xbd8901b4	-0.06689778
50	0xbdb3f353	-0.08786645
51	0xbcc90008	-0.024536148
52	0xbe4e2668	-0.20131838
53	0xbe104ed7	-0.14092575
54	0x3e0db4d9	0.13838519
55	0xbd761334	-0.060076907
56	0xbded4ade	-0.115865454
57	0x3d991675	0.074749865
58	0xbc3616f6	-0.011113873
59	0x3c635ead	0.013877553
60	0x3e3bb311	0.18330027
61	0xbcb9a6f2	-0.022662614
62	0xbd8dc1a5	-0.069217004
63	0x3dbf1cd9	0.09331674
64	0x3df4bd5e	0.119501814
65	0xbe41dcd0	-0.1893189
66	0x3db0632f	0.08612668
67	0x3e693a89	0.22776236
68	0xbcccbf84	-0.024993666
69	0xbe3a2427	-0.18177854
70	0x3cbf1187	0.023323787
71	0xbd3a0fb1	-0.04542512
72	0xbdcb2896	-0.099198505
73	0xbd660881	-0.056160454
74	0x3d54e199	0.05197296
75	0x3e0af218	0.13568914
76	0x3d848902	0.06471445
77	0x3d878d64	0.06618765
78	0x3e3facda	0.18718281
79	0x3c83a721	0.016070904
80	0xbd34c6cb	-0.044134896
81	0x3e27c078	0.16382015
82	0x3dd0a07d	0.10186861
83	0xbe2ac7aa	-0.16677728
84	0x3b8e679d	0.0043458478
85	0x3dc0d823	0.09416225
86	0x3de59c37	0.11211436
87	0x3e12b4dd	0.14326806
88	0x3e8a663a	0.27031118
89	0x3e047e7d	0.12938876
90	0x3da88f63	0.08230474
91	0xbccd401e	-0.025054988
92	0x3d367fa0	0.044555306
93	0xbe2153e9	-0.15754665
94	0x3d61f9e4	0.055169955
95	0xbc3a2c0a	-0.011363039
96	0x3df6fc60	0.120598555
97	0x3c800535	0.015627483
98	0xbd215082	-0.03938342
99	0x3dc2706a	0.094940975
100	0x3dbbd2f3	0.09171095
101	0xbdea79c1	-0.11449004
102	0xbca04f5c	-0.019569091
103	0x3e34cd6f	0.17656492
104	0x3b042df1	0.0020168985
105	0xbde17581	-0.1100874
106	0xbd102012	-0.035186835
107	0x3cd5b4cd	0.02608719
108	0xbd74003e	-0.059570543
109	0x3dfe5813	0.124191426
110	0xbd6dfebf	-0.058104273
111	0x3d87adce	0.066249475
112	0xbc3dca70	-0.011583909
113	0xbd867af7	-0.065664224
114	0x3dd28c97	0.10280722
115	0x3c3c0ffd	0.011478421
116	0xbd2773e1	-0.040881995
117	0xbe184a0a	-0.14871994
118	0x3d896612	0.067089215
119	0xbd8687b3	-0.06568851
120	0xbe14b9d7	-0.14524017
121	0xbe4217e0	-0.1895442
122	0xbdef8197	-0.11694639
123	0xbe27d533	-0.16389923
124	0xbdcac53f	-0.09900903
125	0xbe361a24	-0.1778341
126	0xbd69d83c	-0.057090983
127	0x3d3ee98f	0.046609458
128	0x3e1653f7	0.14680468
129	0xbcc06f4e	-0.023490574
130	0x3b64eb0a	0.0034930133
131	0xbd4cfec9	-0.05004767
132	0x3d187663	0.037222277
133	0x3ddca2a5	0.107732095
134	0x3df6901c	0.120392054
135	0x3d0c484f	0.034248646
136	0xbd819585	-0.06327347
137	0x3d9d9492	0.07694353
138	0x3dca58f3	0.09880247
139	0x3e460e5c	0.19341415
140	0x3d93c67e	0.07215594
141	0xbe92e06e	-0.2868685
142	0xbe0c68a1	-0.13711788
143	0xbd93a167	-0.072085194
144	0x3c47e324	0.012200151
145	0xbcccd3a4	-0.025003262
146	0x3e1c1721	0.15243198
147	0x3e11e8bc	0.14248937
148	0xbe058857	-0.13040291
149	0x3dfde94a	0.12398012
150	0xbb7250b8	-0.0036974382
151	0xbe3f2bdb	-0.18669073
152	0xbe1c8d9a	-0.15288392
153	0xbd4ca32a	-0.049960293
154	0x3c9444f8	0.018099293
155	0x3d8bf028	0.068329155
156	0xbdc0851f	-0.09400391
157	0xbde67ac1	-0.11253882
158	0x3d25e9e7	0.04050627
159	0x3d8cfbc0	0.06883955
160	0x3e45f87a	0.19333068
161	0x3e6f4d43	0.23369317
162	0x3de481df	0.111575834
163	0xbd573661	-0.052542094
164	0xbcee7810	-0.029109985
165	0x3e4e48a1	0.20144893
166	0xbdbb5ed6	-0.09148948
167	0x3df801d9	0.121097274
168	0x3dc01f06	0.09380917
169	0xbe3e09a1	-0.1855836
170	0xbe257b54	-0.16160327
171	0x3ca89707	0.020579828
172	0x3d6d501a	0.05793772
173	0xbe03eb26	-0.12882671
174	0x3dcde56d	0.10053525
175	0x3e2d28e0	0.16910124
176	0x3be44dd9	0.006967288
177	0xbd646100	-0.05575657
178	0xbd6f2b9c	-0.0583912
179	0xbe0404ef	-0.12892507
180	0x3e3ed503	0.18635945
181	0xbd034f2a	-0.03205792
182	0x3cee92db	0.02912276
183	0xbd2dc907	-0.042428043
184	0x3d3bef0c	0.04588227
185	0x3d86dedc	0.06585476
186	0x3c885620	0.01664263
187	0xbd8ea59d	-0.06965182
188	0x3ce7a0ae	0.02827486
189	0x3ddc69ae	0.10762344
190	0xbe692ce7	-0.22771035
191	0xbd306184	-0.04306175
192	0x3d8dabae	0.06917511
193	0x3d72c7ac	0.059272453
194	0xbd468ef2	-0.048476167
195	0xbdb6ce77	-0.08926099
196	0x3d67ec0c	0.056621596
197	0xbd5f532d	-0.054522682
198	0xbcc711fc	-0.024300568
199	0x3cb55381	0.022134544
200	0xbd360d90	-0.044446528
201	0xbdc30ea8	-0.0952428
202	0xbdc730d9	-0.09726114
203	0xbd2191b3	-0.03944559
204	0x3c748acd	0.014925671
205	0x3b6ce95c	0.0036149835
206	0x3cafeae6	0.021474313
207	0x3dc3423b	0.09534117
208	0x3d5adc33	0.053432655
209	0x3d077a49	0.033075605
210	0x3e1b7b69	0.15183796
211	0xbc04cb02	-0.008105041
212	0x3e2bb420	0.16767931
213	0x3e2b6843	0.16738991
214	0xbd99bc61	-0.075066335
215	0xbd66af14	-0.05631931
216	0x3b5cc969	0.0033689386
217	0xbd308322	-0.043093808
218	0xbdefaf65	-0.11703376
219	0xbe3f10ce	-0.18658754
220	0x3deaeb31	0.114706405
221	0x3daf5822	0.08561732
222	0x3a7abfaa	0.00095653033
223	0xbe2faf92	-0.17156819
224	0xbe1238f9	-0.14279546
225	0xbe026139	-0.127324
226	0x3de675c2	0.11252929
227	0x3d8123ce	0.06305657
228	0xbded2e4c	-0.11581096
229	0x3d855943	0.06511166
230	0x3d925bed	0.0714644
231	0xbd81d070	-0.063385844
232	0xbddd653a	-0.10810323
233	0xbdb36eb2	-0.08761348
234	0xbd3b343a	-0.045704104
235	0xbddeed4a	-0.10885103
236	0xbdf8b3ea	-0.12143691
237	0x3e033124	0.12811714
238	0xbda15b96	-0.07878797
239	0xbe1d1cf5	-0.15343077
240	0x3cd2505b	0.025673082
241	0xbe1e4579	-0.15456189
242	0xbdab8dff	-0.08376693
243	0xbda850ca	-0.08218534
244	0xbe6ee4a5	-0.23329408
245	0xbe23f8c4	-0.16012865
246	0xbdcd1f53	-0.1001574
247	0x3df0c7ab	0.11756834
248	0xbbf44c01	-0.0074553494
249	0x3d9fd4b0	0.07804239
250	0x3e331cfe	0.17491528
251	0x3d32bcd7	0.043637123
252	0xbc12b949	-0.008955308
253	0xbdc6a21b	-0.09698888
254	0x3d5abb33	0.053401183
255	0x3d7b0b02	0.061289795

conv2.bias f4 [8]
0	0x3e1d374b	0.15353124
1	0xbe1dae85	-0.15398605
2	0x3e1180a4	0.14209229
3	0x3dcbdba2	0.09954001
4	0x3cdd22e1	0.02699417
5	0xbdac1298	-0.08401984
6	0xbc721957	-0.014776549
7	0x3da21a50	0.07915175

bn2.weight f4 [8]
0	0x3f77fbc1	0.9686852
1	0x3f79c7e0	0.9757061
2	0x3f76ec3d	0.9645422
3	0x3f936d7b	1.1517786
4	0x3f6ac1dd	0.9170206
5	0x3f7b9398	0.98272085
6	0x3f81f111	1.0151693
7	0x3f884477	1.0645894

bn2.bias f4 [8]
0	0xbdfb0ab9	-0.122579046
1	0xbdb9f206	-0.090793654
2	0xbcbb6dda	-0.02287953
3	0x3d7b31f0	0.06132692
4	0xbd42cfc0	-0.047561407
5	0xbd29a4d4	-0.041416958
6	0x3ca7a824	0.020465918
7	0xbd510776	-0.051032506

bn2.running_mean f4 [8]
0	0x3e32dd89	0.17467321
1	0xbf000197	-0.50002426
2	0x3f045bcb	0.51702565
3	0xbe659f8c	-0.22424144
4	0x3e196db0	0.14983249
5	0x3dad444c	0.08460292
6	0xbe9c7a72	-0.30562168
7	0x3e637106	0.22211084

bn2.running_var f4 [8]
0	0x3c5ef04e	0.013607098
1	0x3de28135	0.110598005
2	0x3d01a3bb	0.031650286
3	0x3df30275	0.11865703
4	0x3d096754	0.033545807
5	0x3c4770f5	0.012172927
6	0x3cd4d455	0.025980154
7	0x3ce41b06	0.027844917

conv3.weight f4 [16, 8, 3, 3]
0	0x3cb2a288	0.021806017
1	0xbdc50973	-0.09620943
2	0x3d3fd113	0.046830248
3	0x3c635a0f	0.013876452
4	0x3ddb60ca	0.107118204
5	0xbd023cc0	-0.031796217
6	0xbdf37661	-0.11887813
7	0xbd0213fb	-0.031757336
8	0x3de14d75	0.11001102
9	0x3e094567	0.13405381
10	0x3d3dbcb5	0.046322543
11	0x3cd846a6	0.026400875
12	0x3db91795	0.09037701
13	0x3d81e0b1	0.063416846
14	0xbdabfa28	-0.08397323
15	0xbd1795d1	-0.03700811
16	0x3d5b26a8	0.053503662
17	0x3dd9e181	0.106387146
18	0xbd874ef8	-0.06606859
19	0x3df58ddb	0.119899474
20	0x3db192bf	0.08670568
21	0x3d743740	0.059623003
22	0x3d5d527d	0.054033745
23	0xbd949b42	-0.072561756
24	0xbde7109a	-0.11282463
25	0x3ce0ced2	0.02744237
26	0x3e04eadc	0.12980217
27	0x3dd23544	0.10264066
28	0x3d93dbf5	0.07219688
29	0xbda3c81d	-0.07997153
30	0xbd00b0c0	-0.031418562
31	0x3deb4fc4	0.114898235
32	0x3dde0122	0.1084006
33	0x3dc33900	0.09532356
34	0x3c732c4a	0.014842102
35	0x3bc56d0f	0.0060249637
36	0x3d03a146	0.032136224
37	0xbdb780d1	-0.08960117
38	0x3d30a9c8	0.043130666
39	0x3df91142	0.12161495
40	0x3db966b8	0.09052795
41	0xbdb372ee	-0.087621555
42	0x3c9fab32	0.019490812
43	0x3b542d76	0.003237573
44	0x3e37ce18	0.17949712
45	0xbdf298a5	-0.11845521
46	0x3df8bc2c	0.12145266
47	0xbdb20400	-0.08692169
48	0xbd7ae48d	-0.06125312
49	0x3dc88285	0.097905196
50	0x3ad88bfc	0.0016521211
51	0x3c05dd63	0.0081704585
52	0xbdd8b300	-0.105810165
53	0x3c34df2a	0.011039535
54	0xbd7e1b92	-0.06203801
55	0xbbfa946c	-0.007647088
56	0x3dcc20b4	0.09967175
57	0x3d8c0394	0.0683662
58	0xbe368153	-0.17822771
59	0x3d7cdd15	0.061734278
60	0xbd431c22	-0.04763425
61	0xbd79f8f9	-0.061028454
62	0xbd06076f	-0.032721933
63	0xbdc936dc	-0.09824917
64	0x3ccfe176	0.025376063
65	0xbc3abbf7	-0.011397353
66	0xbd2ed548	-0.04268387
67	0xbe0633d7	-0.13105713
68	0x3ca192d5	0.019723335
69	0xbbd661ec	-0.006542435
70	0x3dbc90db	0.092073165
71	0xbe366ee2	-0.17815736
72	0xbdcbb1f7	-0.099460535
73	0xbdb6fd42	-0.08935024
74	0x3b0cb330	0.0021469109
75	0x3cd54410	0.026033431
76	0xbd550022	-0.05200208
77	0x3beb817d	0.007187067
78	0x3c8d4f28	0.017249659
79	0x3acc608b	0.0015592737
80	0x3d9e6a74	0.07735148
81	0x3aa5fd00	0.0012663901
82	0x3dd0fa27	0.10203963
83	0x3d864a74	0.065571696
84	0xbbc79cc3	-0.0060916855
85	0xbd5901c2	-0.052980192
86	0x3dbea810	0.09309399
87	0xbdeff49f	-0.1171658
88	0xbcf0d442	-0.029398087
89	0xbd6aa2fc	-0.05728434
90	0x3c9b5529	0.018961506
91	0x3cfaa19d	0.030594641
92	0xbe011c6d	-0.126085
93	0xbd9bac1f	-0.07601189
94	0x3d8e4d3d	0.06948326
95	0x3dcba0bb	0.09942766
96	0xbdc4d858	-0.09611577
97	0xbd9ea314	-0.077459484
98	0xbdedf2c7	-0.11618572
99	0x3b451a99	0.0030075668
100	0x3cf7fc77	0.030271752
101	0x3e451059	0.19244517
102	0x3d9fe5a9	0.07807476
103	0xbe03baef	-0.12864278
104	0x3d0b3b25	0.03399195
105	0xbd5f4b48	-0.054515153
106	0xbbe64767	-0.007027555
107	0xbde2fb0e	-0.11083041
108	0xbc23f1ca	-0.0100063775
109	0x3dc985c7	0.09839969
110	0xbbd1299d	-0.0063831345
111	0xbcf071d3	-0.02935115
112	0x3d96ff6b	0.07372936
113	0xbbe9f190	-0.007139392
114	0xbd5a0cfe	-0.053235047
115	0x3d27cf25	0.040969033
116	0x3d9e4c8c	0.07729444
117	0x3cd228c8	0.025654212
118	0x3dcd30ed	0.100190975
119	0x3d336d94	0.043805674
120	0xbd3c5e4a	-0.04598836
121	0xbdc0172b	-0.09379419
122	0xbd8b23c1	-0.06793929
123	0x3cb05eed	0.02152964
124	0x3d78046e	0.0605511
125	0x3de1a7e1	0.110183485
126	0xbce78787	-0.028262867
127	0xbd624672	-0.055242963
128	0xbd8bbf73	-0.068236254
129	0x3cf81706	0.030284416
130	0x3da21ba3	0.079154275
131	0x3dc60de0	0.09670615
132	0x3e07c9d5	0.13260587
133	0xbcfc79f8	-0.030819878
134	0xbe4d3254	-0.2003873
135	0x3d53b55a	0.051686622
136	0x3e2b2985	0.16715057
137	0x3e723f45	0.23656948
138	0x3d152cb6	0.036419593
139	0xbc874c4b	-0.016515872
140	0xbd9fbf28	-0.07800132
141	0xbd2ac1b3	-0.041688632
142	0xbcde1081	-0.027107479
143	0x3ddaaa30	0.10676992
144	0x3e1ff91a	0.15622368
145	0x3c71c42e	0.014756246
146	0xbd669e76	-0.056303464
147	0x3d98b98d	0.07457266
148	0x3b655f7d	0.0034999542
149	0xbd5d348a	-0.054005183
150	0xbd8e5740	-0.06950235
151	0xbd3e40aa	-0.046448387
152	0xbd80f52d	-0.062967636
153	0x3b07e629	0.0020736551
154	0xbd9c587b	-0.07634064
155	0x3d0d9e0c	0.034574553
156	0xbd06142d	-0.032734085
157	0xbd880395	-0.06641308
158	0xbdc2093b	-0.09474417
159	0xbc5f0c55	-0.01361378
160	0x3b80c0a9	0.003929217
161	0xbcd27e5e	-0.025695022
162	0xbda9ab6e	-0.08284651
163	0xbd53a666	-0.05167236
164	0xbca7500f	-0.020423917
165	0x3b13d61b	0.0022558037
166	0xbd1a93b8	-0.03773853
167	0xbb645dc3	-0.0034845925
168	0x3ce30a01	0.027714731
169	0xbbf33846	-0.00742248
170	0xbd1e4d77	-0.038648095
171	0xbca8e2c7	-0.020615948
172	0x3e675169	0.2258965
173	0x3e69826f	0.22803663
174	0xbbeb72a8	-0.007185299
175	0xbd03e119	-0.03219709
176	0x3e004d2b	0.12529437
177	0xbd5966fd	-0.053076733
178	0x3e3b30a9	0.18280281
179	0xbd8aac26	-0.06771116
180	0x3d7de7c0	0.061988592
181	0xbd38355f	-0.044972774
182	0x3d7aa0bf	0.061188456
183	0xbc1c5464	-0.009541605
184	0x3e0bbdbf	0.13646601
185	0x3d20fe49	0.039305005
186	0x3c4419d4	0.0119690485
187	0x3db6df8a	0.089293554
188	0x3dde9ffa	0.10870357
189	0x3e369755	0.17831166
190	0xbe4162d0	-0.1888535
191	0xbe2dec90	-0.16984773
192	0xbdab7d7b	-0.08373543
193	0x3d84e78c	0.064894766
194	0x3cc06752	0.023486767
195	0x3d5fd41d	0.054645646
196	0xbd9a4a50	-0.07533705
197	0xbd5513d8	-0.052020878
198	0x3d291aa2	0.041285165
199	0x3cfaadc9	0.030600445
200	0x3e0980d7	0.13428055
201	0xbd0b771b	-0.034049135
202	0xbc50f9dd	-0.012754885
203	0xbd14213a	-0.0361645
204	0xbd97fc2a	-0.07421143
205	0xbb9d99be	-0.0048095873
206	0xbd82e727	-0.06391745
207	0x3da39213	0.07986846
208	0xbe005168	-0.12531054
209	0x3d0b3c58	0.033993095
210	0x3d0b932d	0.034075905
211	0xbd138130	-0.036011875
212	0xbc800899	-0.0156291
213	0xbc871b72	-0.01649258
214	0x3e072e1d	0.13201185
215	0xbd92466b	-0.071423374
216	0x3c3f2086	0.011665469
217	0xbe10956c	-0.141195
218	0x3c5f5914	0.013632078
219	0xbdb03f91	-0.08605874
220	0x3c63734b	0.013882468
221	0x3d8de7cf	0.069289796
222	0xbe262e7d	-0.16228671
223	0xbb8bdcec	-0.0042682793
224	0xbddb908c	-0.107209295
225	0xbd7f0c2c	-0.062267467
226	0x3d98a024	0.074524194
227	0x3df877c5	0.12132219
228	0x3bbb5338	0.0057167076
229	0x3dce0cb1	0.100610144
230	0xbd80eb59	-0.06294889
231	0xbe0c8a7d	-0.13724704
232	0x3d262648	0.04056385
233	0x3b94551a	0.0045267465
234	0x3cf4e5ea	0.029894788
235	0x3cd460d9	0.025925087
236	0xbd8a1594	-0.06742397
237	0x3df7484d	0.12074337
238	0x3bed7518	0.0072466247
239	0xbd9cbd10	-0.07653248
240	0x3d09e0bf	0.0336616
241	0xbc1b9187	-0.009495146
242	0xbd981c63	-0.07427289
243	0x3da588e1	0.08082748
244	0x3e2394a4	0.1597467
245	0x3e1586bd	0.1460218
246	0x3c9faa8e	0.019490507
247	0xbe07c8b7	-0.1326016
248	0xbe11cf23	-0.14239173
249	0xbdc8eff0	-0.098113894
250	0xba6c1eae	-0.0009007257
251	0x3d20a73c	0.039221987
252	0xbcd84953	-0.026402151
253	0x3de0d152	0.10977425
254	0xbbc3e015	-0.0059776404
255	0xbd5ca547	-0.05386856

conv3.bias f4 [16]
0	0xbdecb2e9	-0.11557562
1	0x3a95f9dd	0.0011442263
2	0x3d87b54e	0.06626378
3	0x3cb8c779	0.022556053
4	0x3cf299ce	0.029614355
5	0xbd2e3e9f	-0.04254019
6	0xbd9225df	-0.071361296
7	0x3dfa21c0	0.122134686
8	0xbdb3effa	-0.08786006
9	0xbdc52881	-0.09626866
10	0xbd6c6e86	-0.05772259
11	0x3d1b6e33	0.03794689
12	0xbd3e5f93	-0.046477865
13	0x3d8f51c6	0.06998019
14	0x3dacd28a	0.08438595
15	0xbdcaa8cb	-0.09895476

bn3.weight f4 [16]
0	0x3faf7768	1.3708315
1	0x3fb04c77	1.3773335
2	0x3fa642e2	1.2989161
3	0x3faae698	1.3351622
4	0x3fb9a07f	1.4502105
5	0x3fce3799	1.6110717
6	0x3f96a0c0	1.1767807
7	0x3fbb25c5	1.4620901
8	0x3fac4d41	1.3461076
9	0x3facb7e9	1.3493625
10	0x3fac3d23	1.3456157
11	0x3fafc2ae	1.3731287
12	0x3fa2673b	1.2687753
13	0x3fa6f67f	1.3043975
14	0x3fa6f496	1.3043392
15	0x3fae2ae9	1.3606845

bn3.bias f4 [16]
0	0x3d0fc990	0.035104334
1	0xbc7234e9	-0.014783123
2	0x3ca721ab	0.020401796
3	0xbc8a52e5	-0.01688523
4	0x3d31e796	0.04343375
5	0x3b2e0969	0.0026555902
6	0x3c053cf4	0.008132208
7	0x3d29d007	0.041458156
8	0x3d1b2687	0.03787854
9	0x3d9a1a72	0.07524575
10	0x3bd1bd18	0.0064007156
11	0x3daf9a71	0.08574379
12	0x3d5191da	0.051164486
13	0x3c0c4ba8	0.00856296
14	0x3d0cae52	0.034345932
15	0xbbf80c4c	-0.0075698253

bn3.running_mean f4 [16]
0	0x3dcbdf34	0.09954682
1	0x3e1beca2	0.15226987
2	0x3e46ae79	0.19402494
3	0x3e326e54	0.174249
4	0x3ee148d1	0.44000867
5	0x3c3f294e	0.011667563
6	0x3e850c25	0.25985828
7	0xbee51ef7	-0.44750187
8	0x3edde23d	0.4333667
9	0x3c88414a	0.016632695
10	0x3d261596	0.04054793
11	0xbe7e5dde	-0.24840495
12	0xbe6ffac2	-0.234355
13	0xbd94c1a2	-0.07263495
14	0x3d318dbc	0.04334806
15	0x3e70fa2a	0.2353293

bn3.running_var f4 [16]
0	0x3d3bc045	0.04583766
1	0x3e6f0105	0.23340233
2	0x3d60e555	0.054906208
3	0x3da0f9f2	0.07860173
4	0x3d370031	0.044677917
5	0x3db397cf	0.087691896
6	0x3e1e3b2c	0.1545226
7	0x3d898963	0.067156576
8	0x3deaa9d9	0.11458177
9	0x3db21611	0.08695615
10	0x3de11f61	0.10992313
11	0x3dd6e515	0.10492913
12	0x3d857cda	0.06517954
13	0x3dec0963	0.11525228
14	0x3da661f7	0.08124154
15	0x3dc5c403	0.09656527

fc.weight f4 [10, 320]
0	0xbc342209	-0.010994443
1	0xbdc4469f	-0.095837824
2	0xbe375d08	-0.17906582
3	0xbdece210	-0.115665555
4	0xbdcee823	-0.1010287
5	0xbde08198	-0.10962218
6	0xbd2ac420	-0.041690946
7	0x3c3ad133	0.011402416
8	0xbc331160	-0.0109294355
9	0x3be645c2	0.0070273587
10	0xbd8af481	-0.06784917
11	0x3dd44a0e	0.10365687
12	0x3db0d1f3	0.08633795
13	0x3d026319	0.03183279
14	0x3ce6f86e	0.028194632
15	0xbce22e57	-0.027609987
16	0x3c3dc96b	0.011583666
17	0xbd32a62f	-0.043615516
18	0x3cff949e	0.031198796
19	0xbd0e09f8	-0.034677476
20	0xbdba0d13	-0.09084525
21	0xbdbc5f6a	-0.09197886
22	0x3d6bf490	0.05760628
23	0x3dc76a16	0.09737031
24	0x3def3a4c	0.11681041
25	0x3ced35c6	0.028956305
26	0x3dd7a2e6	0.10529117
27	0x3e0184f8	0.1264838
28	0x3d0d874e	0.034552865
29	0xbb8630fc	-0.004095195
30	0x3dca3c55	0.09874789
31	0x3ddea3cc	0.108710855
32	0x3e05061a	0.12990609
33	0xbcea2ac0	-0.028584838
34	0xbdaac3b7	-0.08338111
35	0xbe2e03ed	-0.16993685
36	0xbe4e79af	-0.20163606
37	0xbe532e2f	-0.20623086
38	0xbc957d74	-0.018248297
39	0x38f204f4	0.00011540382
40	0xbd4c87a3	-0.04993404
41	0xbe32efb6	-0.17474255
42	0xbe1e6b8a	-0.1547071
43	0xbe02baa7	-0.12766515
44	0xbd78ccab	-0.06074206
45	0xbd8326b7	-0.06403869
46	0x3d903072	0.0704049
47	0xbc5657db	-0.01308247
48	0x3c747402	0.014920237
49	0x3d04471c	0.032294378
50	0xbc34bd9d	-0.011031535
51	0xbd0f95ab	-0.035054844
52	0x3b2941e2	0.0025826623
53	0x3dc7f0c4	0.09762719
54	0x3d7c1dbb	0.06155179
55	0x3c9d6583	0.019213444
56	0x3cf14b4e	0.029454853
57	0x3d5afa9f	0.053461667
58	0x3dce8010	0.1008302
59	0xbd575fb6	-0.05258151
60	0xbdd48e68	-0.10378724
61	0xbd168bec	-0.036754534
62	0xbdaf0301	-0.08545495
63	0xbcab71f5	-0.020928362
64	0xbd94e220	-0.072696924
65	0xb923c5db	-0.00015618598
66	0x3c947f94	0.01812724
67	0xbd12b960	-0.03582132
68	0x3c4d69eb	0.01253746
69	0xbd4cdd56	-0.05001577
70	0xbd6b2834	-0.057411388
71	0x3d27013e	0.04077267
72	0x3e29f07e	0.16595647
73	0x3e0d2709	0.13784422
74	0xbbe69061	-0.0070362543
75	0xbd8e0013	-0.06933608
76	0xbe1d0bed	-0.1533658
77	0x3cb61a6b	0.022229394
78	0x3c335fd4	0.01094814
79	0xbdfc63cb	-0.123237215
80	0xbd10db77	-0.035365548
81	0xbd187359	-0.03721938
82	0xbbbfcc0a	-0.005853181
83	0x3d916fda	0.07101412
84	0x3d348efd	0.044081677
85	0x3deeedad	0.11666427
86	0x3dfabcfe	0.12243079
87	0x3da1bb99	0.078971095
88	0x3d428ed3	0.04749949
89	0xbd369037	-0.044571128
90	0xbda4cb84	-0.0804663
91	0x3d2c3a9c	0.04204808
92	0x3e18e2ae	0.14930221
93	0x3e0c0354	0.13673145
94	0x3daa76f8	0.08323473
95	0x3c847d70	0.016173095
96	0xbd8aa6c4	-0.06770089
97	0xbe4d5b1b	-0.20054285
98	0x3c4a22a8	0.012337364
99	0xbc053968	-0.0081313625
100	0xbd27ac3e	-0.040935747
101	0xbdbab0c0	-0.09115744
102	0x3d0f55db	0.034993988
103	0x3e5bd556	0.214681
104	0x3d3442ab	0.044008892
105	0x3d16e24d	0.03683691
106	0xbce4a268	-0.027909473
107	0xbd3f219d	-0.046662915
108	0xbd8250e1	-0.06363083
109	0xbd9cbbc1	-0.07652999
110	0x3d1f9806	0.03896334
111	0xbc96afb7	-0.018394334
112	0xbd0a5796	-0.033774935
113	0xbd322f34	-0.043502048
114	0xbcb45d97	-0.022017283
115	0xbcc48155	-0.023987452
116	0xbbb68c54	-0.0055709276
117	0x3bbb35c4	0.0057131965
118	0x3d8fc982	0.070208564
119	0xbc944d2c	-0.018103205
120	0xbd5f6d57	-0.054547634
121	0xbdb495e1	-0.0881765
122	0xbd9349b1	-0.0719179
123	0x3d07c09e	0.03314268
124	0x3cdcb0d9	0.026939796
125	0x3da38745	0.07984785
126	0x3c422617	0.011849902
127	0x3d7a7c58	0.06115374
128	0xbb978ea1	-0.004625157
129	0xbd463947	-0.048394468
130	0xbd4e0734	-0.05029984
131	0xbc7b8f48	-0.015353985
132	0x3d88f69c	0.06687662
133	0x3d2c85fb	0.04211996
134	0xbd019add	-0.03164183
135	0x3d280476	0.04101988
136	0x3d633173	0.05546708
137	0x3d4ea5b5	0.050451
138	0x3e011b48	0.12608063
139	0x3c140659	0.0090347165
140	0xbc92658a	-0.017870683
141	0xbd9d479c	-0.07679674
142	0xbe14356d	-0.14473505
143	0xbe6019e3	-0.21884875
144	0xbe53d97b	-0.20688431
145	0xbd510d4e	-0.05103808
146	0x3c44a588	0.012002356
147	0xbcd9f588	-0.026606336
148	0xbd90c996	-0.070696995
149	0xbbedc664	-0.007256316
150	0x3aae61ba	0.0013304271
151	0xbdcaa78d	-0.09895239
152	0xbc94eeb1	-0.018180223
153	0xbd658a26	-0.05603995
154	0xbdaf89d0	-0.085712075
155	0xbd04f339	-0.032458518
156	0xbd618d5a	-0.055066444
157	0xbd0038a5	-0.03130402
158	0x3caf8aab	0.021428427
159	0xbc5f1916	-0.013616821
160	0xbd7fdee2	-0.062468417
161	0xbd375467	-0.044758227
162	0xbd0b6a3c	-0.03403686
163	0x3c8b5a74	0.017010905
164	0x3d3f0dd9	0.046644066
165	0x3dad7db0	0.084712386
166	0x3d5e2e6d	0.054243494
167	0x3dbeddb4	0.0931963
168	0x3d0d6dc4	0.03452851
169	0xbb6af437	-0.003585113
170	0x3b7714ba	0.0037701563
171	0x3d7250e6	0.059159182
172	0x3df05a28	0.11735946
173	0x3bf49ee4	0.0074652303
174	0x3d6f7fa5	0.05847134
175	0xba71863a	-0.0009213422
176	0xbd90e358	-0.070746124
177	0x3cb427b4	0.021991588
178	0x3dff4880	0.12465
179	0x3da51279	0.08060164
180	0xbcf25dc1	-0.029585721
181	0xbe27e79f	-0.1639695
182	0xbd908e59	-0.07058401
183	0xbdca2d05	-0.09871868
184	0xbdab999f	-0.0837891
185	0xbd6f2239	-0.058382247
186	0x3d05509f	0.03254759
187	0x3d6de883	0.05808307
188	0xbcee3b29	-0.029080944
189	0x3c44c782	0.012010457
190	0xbdd8385f	-0.10557627
191	0xbdaf6bdb	-0.08565494
192	0xbc9df4ab	-0.019281706
193	0xbdb966fe	-0.09052847
194	0x3c196645	0.009362762
195	0xbc2c8b01	-0.010531188
196	0xbb62b4c9	-0.003459262
197	0xbca310a4	-0.019905396
198	0xbd54e150	-0.051972687
199	0xbd330295	-0.043703634
200	0xbc0df9f4	-0.0086655505
201	0x3dd25a5f	0.10271143
202	0x3da9903b	0.08279463
203	0x3d94eb41	0.072714336
204	0x3da86cba	0.08223863
205	0x3dacd066	0.08438186
206	0x3d89e984	0.06733993
207	0x3d80bee6	0.06286411
208	0x3d653128	0.055955082
209	0x3d7f4f21	0.062331323
210	0x3d9ffe71	0.07812203
211	0x3e06da19	0.13169135
212	0x3e344b00	0.17606735
213	0x3d9ab721	0.0755446
214	0xbd8b8480	-0.06812382
215	0xbdd42c7a	-0.10360046
216	0xbe5175a8	-0.20455039
217	0xbe3deddd	-0.18547769
218	0xba9ffe09	-0.0012206446
219	0x3d998d83	0.07497694
220	0x3d231f24	0.03982462
221	0x3dda553a	0.10660787
222	0x3d97da02	0.074146286
223	0xbb62ff77	-0.0034637132
224	0xbe1187f8	-0.14212024
225	0xbcf4e9ac	-0.02989658
226	0xbddc487e	-0.10756014
227	0xbdfb74d9	-0.12278146
228	0xbd58b58a	-0.052907504
229	0x3c30dc4f	0.010794713
230	0xbd5362eb	-0.051608007
231	0x3bffd0a9	0.0078068567
232	0xbdc0d99f	-0.09416508
233	0xbd4454af	-0.047932323
234	0x3c575fe2	0.013145419
235	0xbc407130	-0.011745736
236	0x3ce15482	0.027506117
237	0x3dc29e9f	0.09502911
238	0x3cd06ff1	0.025444003
239	0x3d21d78a	0.039512195
240	0x3ca5be2d	0.020232284
241	0x3d17f6ca	0.03710059
242	0xbd322643	-0.04349352
243	0xbd79251d	-0.06082641
244	0xbe09d0f2	-0.13458613
245	0xbcdbb669	-0.026820378
246	0xbc299d79	-0.010352486
247	0x3d0d9bf5	0.03457256
248	0x3d304625	0.043035645
249	0xbcd658bf	-0.026165364
250	0x3d412097	0.04715022
251	0x3d25d7aa	0.040488876
252	0xbd2764b2	-0.040867515
253	0xbded04c6	-0.11573176
254	0x3acc22a3	0.0015574287
255	0x3d57c425	0.052677292

fc.bias f4 [10]
0	0x3b39f7ca	0.0028376454
1	0xbc8e75bb	-0.017390123
2	0xbd6de1fd	-0.058076847
3	0x3c37fe3b	0.011230047
4	0x3c119751	0.008886174
5	0x3be5cb9b	0.007012797
6	0x3d8e2613	0.06940856
7	0x3c26865c	0.01016387
8	0xbd4b45c5	-0.049627084
9	0xbcf05068	-0.029335216
