audio_mnist_cnn_speakers.pth (torch, 27403 bytes, 20 tensors)

conv1.weight f4 [4, 1, 3, 3]
-0.21397705 0.064256854 -0.06889606 0.22416157 0.023826322 0.23628138 -0.09590679 0.26230475
-0.14971894 -0.1845508 -0.19544554 0.29530457 0.1593591 0.33080295 -0.27443394 -0.3412552
-0.3663566 -0.34913808 0.23995899 0.19311482 0.29356283 -0.13540128 -0.18622458 0.21904911
-0.21544589 0.05009738 -0.26450163 0.18331064 -0.19788964 -0.14118826 0.15741807 0.19675098
0.05224814 0.35008085 0.284178 -0.09040719
00000000: cd1c 5bbe 1999 833d 6119 8dbd 9c8a 653e
00000010: 6b2f c33c bff3 713e c76a c4bd cf4c 863e
00000020: ec4f 19be e3fa 3cbe e022 48be 2932 973e
00000030: 082f 233e 015f a93e 9b82 8cbe 00b9 aebe
00000040: 1893 bbbe 3ac2 b2be cfb7 753e e4bf 453e
00000050: de4d 963e a2a6 0abe a8b1 3ebe 694e 603e
00000060: d99d 5cbe e932 4d3d c26c 87be c9b5 3b3e
00000070: 95a3 4abe a893 10be 3432 213e 1779 493e
00000080: 2502 563d cc3d b33e c77f 913e 6827 b9bd

conv1.bias f4 [4]
-0.1756943 0.30542946 -0.10871302 -0.113698356
00000000: 35e9 33be 4061 9c3e efa4 debd afda e8bd

bn1.weight f4 [4]
0.962616 1.0248001 1.1627516 0.91357696
00000000: 016e 763f a62c 833f 0bd5 943f 2ee0 693f

bn1.bias f4 [4]
-0.030590171 0.017075613 -0.12717256 -0.013357053
00000000: 3d98 fabc 28e2 8b3c 8639 02be 8ad7 5abc

bn1.running_mean f4 [4]
-9.9027195 -2.912363 -22.26212 -10.302312
00000000: 8a71 1ec1 2864 3ac0 d218 b2c1 45d6 24c1

bn1.running_var f4 [4]
7662.25 2421.9604 14404.15 5047.058
00000000: 0072 ef45 5e5f 1745 9a10 6146 77b8 9d45

conv2.weight f4 [8, 4, 3, 3]
-0.14718641 -0.11794538 -0.012633957 0.006503906 -0.081570186 0.03519871 -0.31476802 -0.36414087
-0.26222917 -0.080021165 -0.09711461 0.18884416 -0.07207987 -0.023602689 -0.16673349 0.07478343
0.037788935 0.1322379 -0.13344866 -0.13465525 -0.118841834 0.023893317 -0.078917556 -0.05033121
-0.021397503 -0.004481261 0.0006115152 0.01818164 -0.08800023 0.0918665 0.02700684 0.20951004
0.09633655 -0.2579155 -0.08128306 -0.15762892 -0.10693917 -0.17133923 -0.17422907 0.023160115
-0.044066053 0.08222191 0.0030826395 0.16182792 -0.101314045 0.06254203 0.07768241 0.11520764
0.029228723 0.018125629 -0.19987652 -0.078192264 -0.18598644 -0.13219458 0.018888488 0.17122066
-0.15503061 0.025184719 -0.009150682 -0.010102776 -0.07116315 0.22505781 0.14297055 -0.037054636
-0.16949137 0.072902046 0.014644646 -0.051660866 0.20156357 0.0550562 -0.18821406 -0.16168582
-0.023201695 0.05806392 -0.05898676 -0.09807153 -0.09768018 -0.13859215 -0.029060805 0.09368782
-0.09365312 0.036634628 0.1318467 0.07433915 0.033834495 0.09726656 0.039110586 0.004841399
-0.06510929 -0.047785696 0.063547395 0.0038547283 0.0031573826 0.262602 0.24115457 0.0034582908
-0.12136693 -0.07916577 -0.05545825 0.05106477 0.01481521 -0.16210933 -0.07634136 0.08104282
0.056788605 -0.0669823 -0.07664689 -0.06665889 -0.13543853 -0.0599798 0.053801525 0.11715935
0.07498644 -0.13968983 -0.4636687 -0.24239591 0.03397127 0.017527672 -0.048989967 0.025820876
-0.10001657 -0.12827589 0.11861561 0.0053546494 -0.0014961755 -0.22215503 0.17033431 0.16485883
0.11433365 -0.1610208 -0.19619562 -0.1292081 0.31965315 0.15454634 0.057738863 0.06932123
0.030392928 -0.018439673 -0.049873307 -0.104620546 -0.10239067 -0.045376606 -0.20632543 -0.12997925
-0.08865381 -0.023368852 -0.10422075 -0.12747808 -0.0055599525 -0.10165124 0.087920316 -0.07805593
-0.08063101 -0.1288492 -0.113017894 -0.053520363 -0.1916733 0.20914152 0.017600646 0.009951519
0.000659154 0.09762271 -0.06385894 0.07338728 -0.1668185 0.12995136 0.2613546 0.08699908
-0.0011215255 -0.06413085 -0.0977151 0.104432255 -0.09056729 0.15790705 0.096210636 0.043747716
-0.14489013 -0.09828812 0.07202838 0.20596206 -0.13867316 0.016211178 -0.08174133 -0.062229007
-0.08659417 -0.09310167 0.1546644 -0.015654813 0.23666199 0.18601136 0.035001144 -0.013925258
-0.023860192 -0.08559792 -0.116012275 0.09288741 0.042192116 -0.057927676 -0.10066429 -0.07358682
-0.075639956 -0.26489186 -0.21267293 -0.19687052 -0.035590783 -0.07377156 0.16869274 -0.068805195
0.063723356 -0.022996388 -0.034159303 0.14857374 0.018615538 0.15957907 0.29032192 0.2776938
-0.058120243 0.025528643 0.10519803 -0.011326227 -0.012270569 -0.24957113 -0.2392396 -0.03377763
-0.016420547 -0.09862596 -0.23293084 -0.07231924 -0.1694629 -0.17061877 -0.041890074 0.11364183
-0.036568526 -0.10297218 0.07481393 0.16202825 -0.15945597 -0.03415813 0.11004467 0.027133783
0.092478186 -0.053393822 -0.14020756 -0.053191572 -0.11886474 0.02143916 -0.023152942 0.13689287
-0.14364165 -0.17977633 0.102217644 0.17326297 0.07193337 0.0705387 0.03940104 -0.2128582
00000000: 09b8 16be 598d f1bd a8fe 4ebc b81e d53b
00000010: 450e a7bd 862c 103d 4629 a1be ac70 babe
00000020: e742 86be 23e2 a3bd 06e4 c6bd 5d60 413e
00000030: 9c9e 93bd 6d5a c1bc 2fbc 2abe 0e28 993d
00000040: 92c8 1a3d 5f69 073e c4a6 08be 11e3 09be
00000050: 5963 f3bd ebbb c33c 879f a1bd 1928 4ebd
00000060: d149 afbc 8bd7 92bb 174e 203a aaf1 943c
00000070: 7739 b4bd 8124 bc3d 733d dd3c cd89 563e
00000080: 194c c53d 800d 84be bc77 a6bd 7a69 21be
00000090: ec02 dbbd 8d73 2fbe 1b69 32be 48ba bd3c
000000a0: 9b7e 34bd f663 a83d 1c06 4a3b 38b6 253e
000000b0: bd7d cfbd 0916 803d f517 9f3d fcf1 eb3d
000000c0: 1371 ef3c 337c 943c 6eac 4cbe 4423 a0bd
000000d0: 3b73 3ebe 045e 07be 08bc 9a3c 7854 2f3e
000000e0: 58c0 1ebe 2f50 ce3c beec 15bc 1d86 25bc
000000f0: fcbd 91bd 8e75 663e df66 123e 9ac6 17bd
00000100: 258f 2dbe ab4d 953d 19f0 6f3c 589a 53bd
00000110: ae66 4e3e 9c82 613d 30bb 40be f890 25be
00000120: 7b11 bebc 6fd4 6d3d 1a9c 71bd bad9 c8bd
00000130: 8c0c c8bd 1aeb 0dbe ed10 eebc 66df bf3d
00000140: 35cd bfbd 310e 163d d202 073e 203f 983d
00000150: 0a96 0a3d b133 c73d 6c32 203d 99a4 9e3b
00000160: 0558 85bd efba 43bd 2325 823d 9c9f 7c3b
00000170: 17ec 4e3b c573 863e 39f1 763e 7ea4 623b
00000180: 3a8f f8bd aa21 a2bd 3128 63bd 4b29 513d
00000190: 7fbb 723c fdff 25be dc58 9cbd c7f9 a53d
000001a0: 2b9b 683d 042e 89bd 0bf9 9cbd 7584 88bd
000001b0: 66b0 0abe 61ad 75bd fd5e 5c3d 3ef1 ef3d
000001c0: 7e92 993d da0a 0fbe fc65 edbe a236 78be
000001d0: 7525 0b3d 3196 8f3c b4a9 48bd 4d86 d33c
000001e0: 7dd5 ccbd c15a 03be beec f23d 0e76 af3b
000001f0: 521b c4ba 9c7c 63be 1e6c 2e3e c1d0 283e
00000200: c327 ea3d a3e2 24be 81e7 48be 214f 04be
00000210: 94a9 a33e 6541 1e3e 967f 6c3d 4af8 8d3d
00000220: 97fa f83c cc0e 97bc f447 4cbd 4c43 d6bd
00000230: 33b2 d1bd d2dc 39bd f946 53be 4819 05be
00000240: 2190 b5bd 0970 bfbc b071 d5bd 9d89 02be
00000250: 4330 b6bb 862e d0bd 910f b43d cadb 9fbd
00000260: df21 a5bd 0bf1 03be ed75 e7bd 2b38 5bbd
00000270: 0146 44be 3229 563e 3b2f 903c b20b 233c
00000280: 13cb 2c3a 6aee c73d 7ac8 82bd 124c 963d
00000290: 78d2 2abe f811 053e 45d0 853e 932c b23d
000002a0: 2700 93ba 0957 83bd db1e c8bd 94e0 d53d
000002b0: 587b b9bd 63b2 213e 150a c53d ce30 333d
000002c0: 145e 14be 484b c9bd 9e83 933d b8e7 523e
000002d0: 5600 0ebe 4ecd 843c 0068 a7bd d8e3 7ebd
000002e0: 4958 b1bd 17ac bebd 5860 1e3e 863e 80bc
000002f0: 8557 723e c379 3e3e 5c5d 0f3d c426 64bc
00000300: 7376 c3bc f64d afbd d897 edbd c13b be3d
00000310: a4d1 2c3d 9245 6dbd 1429 cebd b0b4 96bd
00000320: 1fe9 9abd e89f 87be efc6 59be 6d98 49be
00000330: a4c7 11bd 8b15 97bd cabd 2c3e bde9 8cbd
00000340: 6481 823d ec62 bcbc a0ea 0bbd b723 183e
00000350: 9d7f 983c b268 233e 13a5 943e e22d 8e3e
00000360: 7e0f 6ebd 7221 d13c 1172 d73d a491 39bc
00000370: 7f0a 49bc 938f 7fbe 3afb 74be 6a5a 0abd
00000380: 6284 86bc 68fc c9bd 6c85 6ebe 1c1c 94bd
00000390: af87 2dbe b0b6 2ebe ed94 2bbd 0cbd e83d
000003a0: e1c8 15bd 14e3 d2bd 0c38 993d bcea 253e
000003b0: 6d48 23be 65e9 0bbd 1a5f e13d ab47 de3c
000003c0: 3465 bd3d 7bb3 5abd 9292 0fbe 68df 59bd
000003d0: 5b6f f3bd 2da1 af3c 3dab bdbc a52d 0c3e
000003e0: cc16 13be 4917 38be 7c57 d13d d96b 313e
000003f0: cd51 933d 9876 903d fc62 213d 80f7 59be

conv2.bias f4 [8]
-0.13460459 0.06404229 -0.011816928 0.03026274 -0.14770782 0.096043184 0.03671473 0.112200454
00000000: c9d5 09be 9b28 833d ca9b 41bc 91e9 f73c
00000010: b840 17be 4ab2 c43d 2f62 163d 5ac9 e53d

bn2.weight f4 [8]
1.0845698 1.0070201 1.0364515 0.98804814 1.0085818 0.98679626 0.9379148 0.9297778
00000000: 2fd3 8a3f 09e6 803f 71aa 843f b9f0 7c3f
00000010: 3519 813f ae9e 7c3f 2f1b 703f eb05 6e3f

bn2.bias f4 [8]
-0.007930617 -0.01663166 -0.24026966 0.03221133 -0.11236044 -0.13929941 0.0011567948 0.02960315
00000000: 6bef 01bc 1e3f 88bc 4009 76be 07f0 033d
00000010: 3b1d e6bd 81a4 0ebe 989f 973a 4e82 f23c

bn2.running_mean f4 [8]
-0.42088065 -0.089299686 0.0636239 -0.20108224 -0.23382682 -0.020926518 -0.38310093 0.048390664
00000000: ab7d d7be c1e2 b6bd 3f4d 823d 81e8 4dbe
00000010: 4c70 6fbe 176e abbc ce25 c4be 4a35 463d

bn2.running_var f4 [8]
0.07184884 0.08165778 0.036774036 0.08751256 0.041790605 0.08848072 0.13974515 0.025012378
00000000: 7c25 933d 323c a73d 5fa0 163d c939 b33d
00000010: a02c 2b3d 6135 b53d 5a19 0f3e c2e6 cc3c

conv3.weight f4 [16, 8, 3, 3]
0.015729172 -0.074454986 0.011048352 -0.037505243 -0.03767978 0.038530912 -0.013552965 -0.0980292
0.025173765 0.012618483 -0.076560706 -0.11267239 -0.08816367 -0.031743146 0.05069163 -0.029789997
-0.052303106 0.01762769 0.19520898 0.1548062 -0.14185666 -0.033154853 0.08698785 0.057608675
-0.017769909 0.007992126 -0.080678776 -0.06869087 0.05144757 0.087250106 0.023061568 0.03510831
-0.026839282 -0.07745779 0.0015587726 0.028419234 -0.104049794 -0.15464242 0.018727664 -0.040606923
-0.011161466 -0.038509507 0.036592726 0.042814407 -0.044694677 -0.069065474 0.050900217 0.012218233
0.06048815 0.14065267 -0.0127197895 -0.13210182 0.023358565 -0.018387677 0.012852284 0.03607255
-0.12445875 -0.07743148 0.05872657 0.10495159 0.10125972 -0.0015512083 0.09828472 0.023490835
-0.05954604 0.08020111 0.05662432 0.09711004 -0.078523956 -0.02374882 0.01965369 -0.06018973
-0.14101484 -0.0068148905 -0.06400872 0.23340598 0.2555598 0.20126739 -0.012907791 0.05625685
0.12962097 -0.11313439 -0.06410276 0.04030815 0.067939475 0.064254396 0.0035936893 -0.03261418
0.108424425 0.025628608 -0.060975343 0.1437457 0.10233183 0.07212935 0.08290234 -0.0023241518
-0.03477633 -0.008285958 -0.06682633 0.03927071 0.04711987 0.19666116 -0.021485284 -0.13960735
-0.15295812 0.06396198 0.019934524 0.06843828 0.10057677 0.15485953 0.027488356 0.015330595
0.024079904 -0.0029536088 -0.13341443 0.012263774 -0.059922 0.037200063 -0.07571321 -0.07584861
-0.03842424 0.11655071 -0.044848748 -0.03991868 -0.10232035 0.06304919 -0.052071404 0.040175118
0.02423518 0.067163765 -0.05292565 -0.0021630677 -0.052072305 -0.085746326 -0.10780277 0.07254929
0.0072860704 -0.035393625 0.06245608 0.07412782 0.0013165104 -0.06815618 -0.04697235 -0.021386586
0.29517385 0.069641985 -0.023208639 0.0005601139 0.015507894 0.003591683 -0.091434054 -0.0061868015
0.06871174 0.15084045 -0.008761952 -0.09370699 0.20225315 0.08516117 0.040293712 -0.074612826
-0.0549479 0.1032159 0.046078082 0.040961657 0.09762371 0.15054059 0.087694906 -0.08805848
-0.030168615 0.00505779 -0.02781061 -0.11412925 -0.03483317 -0.050649665 -0.011743943 -0.024063772
-0.112718806 -0.056865085 0.093865864 0.096957296 -0.0560715 -0.0683034 0.17333865 -0.015386145
-0.010462562 0.1358456 -0.07176577 -0.025296507 0.07164583 0.09467067 0.08967974 -0.08653375
0.14366503 0.096657895 0.020296743 -0.018079065 0.080548316 -0.13758649 0.09261616 0.054517742
-0.04958789 -0.01899473 -0.038410395 0.03440187 0.027893284 0.015668256 0.015257487 -0.10297173
-0.039122313 -0.025935918 -0.06698184 -0.036270782 -0.010257213 -0.0015810039 -0.058315054 -0.07489972
-0.034616053 -0.11934501 0.11487947 -0.0131812235 -0.10691648 -0.05541368 -0.1075976 -0.056730065
0.03405525 -0.08106552 -0.13191323 -0.10344907 -0.054795034 -0.08624159 -0.15015413 0.10490959
0.009128825 -0.19264244 0.06968176 -0.04156761 -0.08261206 0.10875841 0.13387613 -0.10258788
0.04050552 -0.06600238 -0.042624537 -0.10547304 0.10019079 0.1062735 0.010351286 -0.053073853
-0.0909573 -0.055710185 -0.05070418 0.07972255 -0.06234682 0.10450176 -0.008458788 0.13665526
00000000: 77da 803c db7b 98bd 2604 353c 199f 19bd
00000010: 1d56 1abd 97d2 1d3d 410d 5ebc 89c3 c8bd
00000020: 3639 ce3c c1bd 4e3c dccb 9cbd c8c0 e6bd
00000030: 278f b4bd 1a05 02bd 07a2 4f3d 270a f4bc
00000040: c83b 56bd f267 903c dde4 473e 8485 1e3e
00000050: df42 11be 62cd 07bd b026 b23d 13f7 6b3d
00000060: 3392 91bc 68f1 023c ea3a a5bd cdad 8cbd
00000070: b0ba 523d 2fb0 b23d 9deb bc3c bbcd 0f3d
00000080: 0ede dbbc 31a2 9ebd bb4f cc3a 74cf e83c
00000090: 0f18 d5bd 955a 1ebe c26a 993c 7253 26bd
000000a0: 95de 36bc 25bc 1dbd 41e2 153d 295e 2f3d
000000b0: c411 37bd 3372 8dbd bf7c 503d fc2e 483c
000000c0: 6cc2 773d 4107 103e aa66 50bc b345 07be
000000d0: 765a bf3c c1a1 96bc 6392 523c cfc0 133d
000000e0: 3be4 febd 6594 9ebd 468b 703d dcf0 d63d
000000f0: 4261 cf3d ea51 cbba 8049 c93d da6f c03c
00000100: 8ce6 73bd 7b40 a43d e7ee 673d a1e1 c63d
00000110: 2bd1 a0bd e38c c2bc c600 a13c 8289 76bd
00000120: 3266 10be 724f dfbb 0117 83bd fa01 6f3e
00000130: bcd8 823e 0a19 4e3e 337b 53bc 956d 663d
00000140: 5cbb 043e 01b3 e7bd 4f48 83bd 291a 253d
00000150: da23 8b3d cf97 833d 1a84 6b3b 7296 05bd
00000160: a00d de3d 16f3 d13c 48c1 79bd 1332 133e
00000170: 5a93 d13d 8db8 933d b4c8 a93d cc50 18bb
00000180: a071 0ebd d4c1 07bc 3edc 88bd 53da 203d
00000190: c400 413d 8b61 493e e801 b0bc 3bf5 0ebe
000001a0: 0ea1 1cbe 80fe 823d ba4d a33c 5e29 8c3d
000001b0: 32fb cd3d 7f93 1e3e 432f e13c 2d2d 7b3c
000001c0: 3843 c53c 5591 41bb cb9d 08be ffed 483c
000001d0: c570 75bd 185f 183d 870f 9bbd 8456 9bbd
000001e0: bc62 1dbd 23b2 ee3d 52b3 37bd c581 23bd
000001f0: 558d d1bd ef1f 813d d348 55bd aa8e 243d
00000200: db88 c63c 288d 893d 91c8 58bd 41c2 0dbb
00000210: c549 55bd c59b afbd b3c7 dcbd b994 943d
00000220: fdbf ee3b e8f8 10bd f2d1 7f3d 54d0 973d
00000230: c28e ac3a 7895 8bbd 1466 40bd ec32 afbc
00000240: 0721 973e 75a0 8e3d 0b20 bebc 9cd4 123a
00000250: d214 7e3c 7162 6b3b c741 bbbd a7ba cabb
00000260: beb8 8c3d eb75 1a3e 4a8e 0fbc 73e9 bfbd
00000270: 731b 4f3e fb68 ae3d 050b 253d 9cce 98bd
00000280: 0d11 61bd dc62 d33d 5fbc 3c3d 69c7 273d
00000290: f1ee c73d 5027 1a3e 6399 b33d 0158 b4bd
000002a0: 2c24 f7bc d1bb a53b 14d3 e3bc 99bc e9bd
000002b0: 3aad 0ebd 0676 4fbd ab69 40bc 6321 c5bc
000002c0: 1ed9 e6bd 5deb 68bd bf3c c03d 8c91 c63d
000002d0: 3bab 65bd a7e2 8bbd b07f 313e 2b16 7cbc
000002e0: 2a6b 2bbc 1c1b 0b3e eff9 92bd 9f3a cfbc
000002f0: 0dbb 923d b2e2 c13d 03aa b73d 9b38 b1bd
00000300: ed1c 133e 93f4 c53d 5b45 a63c 8c1a 94bc
00000310: 84f6 a43d 79e3 0cbe 8bad bd3d ff4d 5f3d
00000320: ac1c 4bbd d69a 9bbc 3854 1dbd fae8 0c3d
00000330: 7580 e43c b75a 803c 8afa 793c d8e2 d2bd
00000340: b83e 20bd 9077 d4bc c62d 89bd ac90 14bd
00000350: df0d 28bc b039 cfba c4db 6ebd 0665 99bd
00000360: 90c9 0dbd 286b f4bd ed45 eb3d 0ff6 57bc
00000370: 07f7 dabd 74f9 62bd 215c dcbd c95d 68bd
00000380: 857d 0b3d ae05 a6bd 4314 07be 1bdd d3bd
00000390: c270 60bd 6e9f b0bd 01c2 19be d7da d63d
000003a0: 1191 153c 0f44 45be 50b5 8e3d cc42 2abd
000003b0: 8330 a9bd bbbc de3d d316 093e 9819 d2bd
000003c0: 1ee9 253d 412c 87bd 1197 2ebd 4002 d8bd
000003d0: d430 cd3d eca5 d93d 7198 293c f863 59bd
000003e0: d247 babd 5d30 64bd 30af 4fbd 9445 a33d
000003f0: 615f 7fbd 0505 d63d ba96 0abc 5bef 0b3e

conv3.bias f4 [16]
0.046243582 -0.124274045 -0.10225228 -0.008020083 0.010802571 -0.009387268 0.015448374 0.13205622
0.07280907 -0.0746809 -0.11215894 -0.14292736 -0.08834515 -0.06742677 0.09129335 0.060042046
00000000: e969 3d3d 6483 febd a569 d1bd ab66 03bc
00000010: 44fd 303c 0ecd 19bc 2d1b 7d3c bf39 073e
00000020: ec1c 953d 4df2 98bd 96b3 e5bd 8d5b 12be
00000030: 4dee b4bd 0c17 8abd 02f8 ba3d a6ee 753d

bn3.weight f4 [16]
1.4077342 1.5485988 1.3334624 1.462993 1.5499755 1.4017608 1.2996196 1.5463727
1.4425561 1.422708 1.5273935 1.4841609 1.327884 1.4298652 1.6151303 1.4422268
00000000: a230 b43f 7c38 c63f e5ae aa3f 5b43 bb3f
00000010: 9965 c63f e66c b33f ef59 a63f 8aef c53f
00000020: aea5 b83f 4c1b b63f a181 c33f fcf8 bd3f
00000030: 1af8 a93f d305 b73f 97bc ce3f e39a b83f

bn3.bias f4 [16]
0.05179251 0.025434384 -0.01481476 0.0110530825 0.093048744 0.03523116 0.07812507 0.08392374
0.10888345 0.039008215 0.03131364 0.005187865 0.008772319 -0.0039421683 0.14184965 0.012684892
00000000: 6224 543d c55b d03c 9bb9 72bc fd17 353c
00000010: 5790 be3d 8d4e 103d 0900 a03d 36e0 ab3d
00000020: 49fe de3d 14c7 1f3d bb42 003d f7fe a93b
00000030: c6b9 0f3c 4e2d 81bb 0941 113e 4bd4 4f3c

bn3.running_mean f4 [16]
0.028701313 0.45806524 0.2689986 -0.3769419 -0.18557692 0.34818617 -0.054297857 0.05217254
-0.4244743 0.2917669 -0.1695683 0.42514125 -0.034261733 0.44614205 0.04346402 0.66500986
00000000: 041f eb3c 8787 ea3e 2fba 893e 87fe c0be
00000010: e007 3ebe 7545 b23e 6e67 5ebd e0b2 553d
00000020: b254 d9be 7962 953e 50a3 2dbe 1dac d93e
00000030: 0856 0cbd bb6c e43e 5407 323d 163e 2a3f

bn3.running_var f4 [16]
0.08006514 0.18585747 0.10777206 0.07736741 0.16016892 0.083833694 0.07645952 0.096917704
0.11555338 0.20482069 0.12088204 0.09256377 0.1297 0.07061231 0.15942937 0.14490306
00000000: 31f9 a33d 6c51 3e3e 99b7 dc3d ce72 9e3d
00000010: 5203 243e 00b1 ab3d cf96 9c3d ca7c c63d
00000020: 40a7 ec3d 84bc 513e 0191 f73d 1392 bd3d
00000030: 14d0 043e 309d 903d 7441 233e 7861 143e

fc.weight f4 [10, 320]
-0.12745625 -0.2051946 -0.18780716 -0.11970312 -0.037917614 -0.0016576595 0.036281962 0.007150525
0.041965015 -0.034867685 -0.08540668 0.11753315 0.07189219 -0.02590455 0.06619706 -0.064739555
-0.025538934 0.058370866 0.09015335 0.019279832 -0.082543895 -0.10594033 -0.023807395 0.06475031
0.1804263 0.15555535 0.14942981 0.12810609 0.19264586 0.02688337 -0.0024120992 0.11510728
0.00932248 0.10782991 0.112607755 0.04419281 0.040522184 -0.06853519 0.016652413 0.01362483
-0.075468086 -0.11610393 -0.10217986 -0.03952706 0.08891739 0.046065878 0.10877167 0.11387006
0.19942775 -0.035368957 0.10105351 0.07060506 -0.07531591 -0.12159176 -0.038855847 0.022735972
0.0030064585 0.061524697 0.08092403 0.08995241 -0.011668922 -0.048712004 -0.14000848 -0.1298632
-0.12844245 -0.043887734 0.07486781 0.011780001 -0.071510635 -0.042125806 -0.03706728 -0.10217291
-0.060100723 -0.101459086 -0.06667105 -0.07191775 -0.12692317 -0.08288745 0.031840146 -0.06540248
0.095295124 0.07604505 0.008730322 0.13160197 0.021813145 0.0052329972 -0.09957034 -0.08073359
-0.059056096 -0.006577156 -0.10170763 -0.09725612 -0.09426149 0.042086698 -0.07656742 0.014645612
-0.014341598 -0.0076090633 0.0027820047 0.072766565 0.035244305 -0.039993342 -0.04840766 -0.14958079
-0.16382316 -0.10972823 -0.029592939 -0.052326307 0.0059679756 -0.049646944 0.028840646 -0.058477923
-0.07981656 -0.023282649 -0.15602462 -0.06662272 -0.05057377 -0.080460995 -0.02032266 0.029267428
0.007708059 -0.1034471 -0.115319766 -0.18139438 -0.10931746 -0.14822328 -0.009747895 -0.07206223
-0.0750625 0.008851671 -0.025113447 -0.04101763 0.054055065 -0.013505608 0.036323447 0.032438125
0.022456704 -0.035350047 0.022667823 -0.004485715 -0.06985536 0.15132526 0.12174341 0.091091864
-0.049870025 -0.06015669 -0.0970308 -0.03818848 0.027160708 -0.037750613 0.037247285 0.03760212
-0.008840753 -0.11264428 -0.08177434 -0.06389211 -0.073186204 -0.081214905 0.009441991 0.018677592
0.02525406 0.10392221 0.11941466 0.06746919 -0.03206171 -0.035537977 -0.07998805 -0.033860277
0.027111728 0.022702178 0.049728375 0.021658901 -0.08444758 0.013076139 -0.025662754 -0.057433907
-0.14812534 -0.0762685 0.04642592 -0.06968843 -0.11082245 -0.07258238 0.023396675 0.10895993
0.1517582 0.099859305 0.11896565 0.16250779 0.18965054 -0.03357797 0.1761634 0.030989962
-0.027189283 0.044452894 -0.09952065 -0.07274671 0.031068001 0.014851547 0.07042597 -0.07270828
-0.09544832 -0.07865743 -0.10411563 -0.17918436 -0.1034784 -0.055434953 0.031104999 0.04538673
0.02898729 -0.045928907 -0.04746768 0.03553058 0.028041989 0.11344738 -0.0018830938 -0.09429439
-0.17695409 -0.04586857 -0.051003296 -0.10203363 -0.060669087 -0.16925928 -0.119511805 0.004048344
0.048556335 -0.044937536 0.06303672 0.07072657 0.010706728 -0.093086846 0.05552641 -0.057597235
-0.030208774 0.0023373486 -0.03399156 -0.023925556 0.07305015 0.102728255 0.09390451 0.13758609
0.0004879046 -0.111034825 -0.11245626 -0.033008154 0.078531556 0.06994905 0.03877847 0.09239758
0.042001083 -0.01845688 0.08910716 -0.0106908195 0.023981025 0.029603953 -0.042864423 -0.08545231
00000000: e483 02be 891e 52be 8550 40be e926 f5bd
00000010: 804f 1bbd d345 d9ba 659c 143d f44e ea3b
00000020: 82e3 2b3d 6bd1 0ebd b3e9 aebd 38b5 f03d
00000030: 363c 933d c735 d4bc 5392 873d 2c96 84bd
00000040: 0737 d1bc 4a16 6f3d 52a2 b83d bdf0 9d3c
00000050: c60c a9bd 3ef7 d8bd ba07 c3bc cf9b 843d
00000060: acc1 383e e749 1f3e 2104 193e 3e2e 033e
00000070: f544 453e 833a dc3c 4f14 1ebb 5ebd eb3d
00000080: 51bd 183c eed5 dc3d e59e e63d 8503 353d
00000090: 97fa 253d 2d5c 8cbd a46a 883c ae3a 5f3c
000000a0: 038f 9abd e6c7 edbd ad43 d1bd 20e7 21bd
000000b0: 521a b63d 93af 3c3d aec3 de3d b534 e93d
000000c0: ca36 4c3e 0adf 10bd 25f5 ce3d 6399 903d
000000d0: 3a3f 9abd 1a05 f9bd 4f27 1fbd ca40 ba3c
000000e0: 0108 453b 5201 7c3d 7fbb a53d f838 b83d
000000f0: 022f 3fbc 3d86 47bd 625e 0fbe dcfa 04be
00000100: 6b86 03be a0c3 33bd 4b54 993d e800 413c
00000110: 2b74 92bd 1c8c 2cbd dcd3 17bd 0840 d1bd
00000120: 2d2c 76bd c8c9 cfbd d58a 88bd 9d49 93bd
00000130: 26f8 01be e5c0 a9bd d06a 023d bcf1 85bd
00000140: 172a c33d 82bd 9b3d a009 0f3c abc2 063e
00000150: 7bb1 b23c 9079 ab3b 89eb cbbd a757 a5bd
00000160: cee4 71bd 2f85 d7bb 174c d0bd 372e c7bd
00000170: 2b0c c1bd 1a63 2c3d 61cf 9cbd 26f4 6f3c
00000180: 06f9 6abc 7355 f9bb 4b52 363b a306 953d
00000190: 555c 103d 0fd0 23bd 1c47 46bd b52b 19be
000001a0: 42c1 27be 32b9 e0bd e46c f2bc 1c54 56bd
000001b0: 028f c33b 985a 4bbd 3843 ec3c 8c86 6fbd
000001c0: dd76 a3bd 41bb bebc ebc4 1fbe 7e71 88bd
000001d0: 7126 4fbd bcc8 a4bd b57b a6bc 3fc2 ef3c
000001e0: e393 fc3b 13dc d3bd c52c ecbd 73bf 39be
000001f0: d5e1 dfbd d8c7 17be a3b5 1fbc 5d95 93bd
00000200: 5eba 99bd 9906 113c b7ba cdbc 1a02 28bd
00000210: d868 5d3d a046 5dbc e5c7 143d d7dd 043d
00000220: 1ff7 b73c 36cb 10bd dfb1 b93c e8fc 92bb
00000230: 5410 8fbd 02f5 1a3e 9c54 f93d 5f8e ba3d
00000240: 8344 4cbd dd66 76bd 16b8 c6bd 866b 1cbd
00000250: 2280 de3c 63a0 1abd 9c90 183d ae04 1a3d
00000260: ced8 10bc 0bb2 e6bd 4e79 a7bd ded9 82bd
00000270: a6e2 95bd 0054 a6bd 95b2 1a3c c001 993c
00000280: 9ae1 ce3c 2bd5 d43d ac8f f43d 492d 8a3d
00000290: 2453 03bd 4590 11bd c6d0 a3bd 13b1 0abd
000002a0: 6a19 de3c ebf9 b93c fbaf 4b3d 026e b13c
000002b0: daf2 acbd 4d3d 563c b23a d2bc d13f 6bbd
000002c0: 2bae 17be a932 9cbd 1b29 3e3d cfb8 8ebd
000002d0: e1f6 e2bd 12a6 94bd 62aa bf3c 6226 df3d
000002e0: 8066 1b3e 0983 cc3d 43a4 f33d 7168 263e
000002f0: c033 423e 0e89 09bd 2e64 343e a9de fd3c
00000300: 0fbc debc 3d14 363d 7cd1 cbbd 3afc 94bd
00000310: 5282 fe3c e753 733c 7e3b 903d 14e8 94bd
00000320: 697a c3bd 2617 a1bd 933a d5bd 1b7c 37be
00000330: 7cec d3bd c30f 63bd e9cf fe3c 70e7 393d
00000340: c176 ed3c f31f 3cbd 786d 42bd 8388 113d
00000350: 50b8 e53c 1a57 e83d 25d2 f6ba 6b1d c1bd
00000360: 7433 35be afe0 3bbd d5e8 50bd 02f7 d0bd
00000370: 2680 78bd 4e52 2dbe 9bc2 f4bd f9a7 843b
00000380: 02e3 463d 6c10 38bd 6519 813d 18d9 903d
00000390: 466b 2f3c 51a4 bebd a96f 633d 14eb 6bbd
000003a0: 6478 f7bc 342e 193b bc3a 0bbd 87ff c3bc
000003b0: 519b 953d 3163 d23d 0251 c03d 5ee3 0c3e
000003c0: 72cd ff39 3a66 e3bd 784f e6bd 8f33 07bd
000003d0: 27d5 a03d 7341 8f3d 2cd6 1e3d f13a bd3d
000003e0: 5409 2c3d e232 97bc d17d b63d 8c28 2fbc
000003f0: db73 c43c fd83 f23c 9b92 2fbd 9f01 afbd

fc.bias f4 [10]
-0.06660711 0.021939637 0.0014884663 -0.02547344 -0.015675306 0.023062427 0.030431263 -0.04199492
-0.060482327 -0.040751573
00000000: 4f69 88bd c1ba b33c a418 c33a adad d0bc
00000010: 8069 80bc 6aed bc3c fc4a f93c dd02 2cbd
00000020: 51bc 77bd 1feb 26bd
