audio_mnist_cnn_speakers.pth (torch, 27403 bytes, 20 tensors)

conv1.weight f4 [4, 1, 3, 3]
00000000: a511 58be cb74 8d3d 8adf 8ebd 04f2 5d3e
00000010: 5404 013d 8d36 7a3e 47fd b3bd 5774 8a3e
00000020: 22fa 14be ca00 3abe 8ff0 45be a69e 983e
00000030: fe88 2c3e 66dd ad3e fca8 89be e8f1 afbe
00000040: 74b5 b8be 5dd8 adbe eb72 713e 2ff5 3f3e
00000050: a3a1 8b3e 7530 0abe 003f 3fbe 4b04 613e
00000060: fe58 79be d80d 093d 5604 8bbe f8b6 443e
00000070: 0ead 41be cd95 06be 65e8 2b3e 9cd2 4a3e
00000080: a81a 5a3d e8d4 b03e 96aa 933e 31a5 eebd
-0.21100481 0.06907042 -0.069762304 0.21674353 0.03149827 0.24434872 -0.08788543 0.27041885
-0.14548543 -0.18164364 -0.19330047 0.2980854 0.16849133 0.33957976 -0.26886737 -0.34364247
-0.36075938 -0.33954135 0.23578994 0.18745874 0.27271757 -0.13495047 -0.18676376 0.21974294
-0.24350354 0.033460468 -0.27151746 0.19210422 -0.18913671 -0.13143082 0.1678787 0.19806904
0.053248078 0.34537435 0.28841084 -0.116526015

conv1.bias f4 [4]
00000000: 9240 3ebe 8d71 a03e 5c80 e4bd 76c5 f7bd
-0.18579319 0.31336632 -0.11157295 -0.120982096

bn1.weight f4 [4]
00000000: c413 783f c0b0 823f c4ed 933f 49f6 6a3f
0.9690516 1.021019 1.1556935 0.9178205

bn1.bias f4 [4]
00000000: 558e cabc acd3 97bc 5c04 d4bd 6209 9fbc
-0.024726072 -0.01853355 -0.10352394 -0.019413654

bn1.running_mean f4 [4]
00000000: e6ec 2bc1 eb03 7dc0 2104 adc1 2afd 30c1
-10.745337 -3.9533641 -21.627016 -11.061808

bn1.running_var f4 [4]
00000000: f1c1 f345 bd86 2b45 f02f 5346 4369 9845
7800.2427 2744.4211 13515.984 4877.1577

conv2.weight f4 [8, 4, 3, 3]
00000000: 7fbd 14be 2f90 f6bd 17e0 16bc 796d 163c
00000010: f925 a6bd b6f9 0e3d 0d18 a8be edec ccbe
00000020: b102 94be a4f1 a3bd a0bd bcbd 736d 463e
00000030: 49f4 7abd 6bb0 87bc 15f8 1ebe b052 823d
00000040: 8810 ec3c ef4b fc3d 7a36 27be 61fd 07be
00000050: 9855 03be 6e74 f43b 3c41 ddbd 08af 72bd
00000060: f11c e8bc db14 87bc 3817 6ebc 2200 913b
00000070: 26df c9bd d12d c63d a8ce d43c 2721 513e
00000080: d1e0 be3d de8a 85be 5d01 c7bd 4eeb 36be
00000090: b669 debd 9940 2cbe 2cd8 32be 8a71 f23c
000000a0: 1b2c 1ebd ae65 b43d eb73 a13b 9026 3c3e
000000b0: be6b c2bd d9da 853d d586 a23d cbd1 d43d
000000c0: cba2 e53c 1b4b 5f3c 95b7 52be eb41 9abd
000000d0: ae22 43be ac02 ffbd bda3 493c e490 243e
000000e0: 6161 2abe 4022 ab3c 1b39 83bc def8 93bc
000000f0: ff94 96bd ea6b 643e 7a81 0d3e 4503 49bd
00000100: f124 28be 6e50 a23d 9720 883c 5370 51bd
00000110: cb62 503e 67e4 1f3d 14d4 3fbe 95e1 2dbe
00000120: 09bb 98bc ebc3 6e3d 45e5 77bd 920a dbbd
00000130: fd70 d3bd 1be5 0cbe dd6c 4bbc 0ca0 c23d
00000140: aa7d aebd d189 c03c 51ce 033e 9ebe 9b3d
00000150: 93f2 1f3d 3f94 c43d e6f8 0c3d a88a 8d3b
00000160: b3ce 83bd 2de8 6ebd fc8e 903d 7903 b63b
00000170: 3a9a 2f3b 71e1 873e 3322 6e3e c581 32bc
00000180: ca9b 09be 5433 bcbd cd0f 3abd 08d0 713d
00000190: 53fe 8f3c fddb 25be e0c0 aabd 71be a23d
000001a0: 5873 583d 9c75 6fbd 3973 b9bd 6b3e 93bd
000001b0: 72a9 0bbe 05f8 7dbd 091a 5d3d 7e58 f93d
000001c0: 6661 a23d fe94 0cbe b54d e5be da8e 82be
000001d0: a1ed 033d b968 c93b cad3 6ebd 1a37 963c
000001e0: 3142 f4bd 4358 11be 8015 023e cb75 6ebc
000001f0: 067a 93bb 1655 60be 70c9 2b3e 3193 203e
00000200: 1834 c33d 7ab5 4fbe e36b 5fbe 1ebc c1bd
00000210: 16f6 9b3e 8548 073e be26 233d 5779 903d
00000220: b461 c63c 971f 67bc 6499 16bd 3d62 d5bd
00000230: 36ec d9bd 487a 56bc 4bee 59be 182e 11be
00000240: 4f80 b6bd 3c50 b9bc 17d3 f3bd 7801 f8bd
00000250: 6186 df3b f505 bcbd 49e0 9b3d 582c 70bd
00000260: f803 96bd c21e eebd ca0c cdbd 8386 4abd
00000270: 06b2 46be b1cf 5c3e 2fac 623c b0e7 7c3c
00000280: 4dce 9bbb 2c98 e33d b3a0 8bbd 3493 a43d
00000290: 3e38 25be 9302 0d3e f9da 8e3e 10f6 a63d
000002a0: 739a c53b a863 73bd fb9d a6bd aea5 e83d
000002b0: daff c5bd 48b5 173e 0136 d33d cbeb 6a3d
000002c0: 1d1a 06be 42c5 dfbd 6301 af3d 1690 4f3e
000002d0: e483 27be d879 23bb 49bd d2bd 891b 5cbd
000002e0: 8070 b1bd 162a babd 4cb0 333e 1b74 dc3c
000002f0: 02e2 853e 8b10 343e 4969 be3c 5a2b 05bc
00000300: 16be 44bc d934 c6bd 3a59 debd 8155 b23d
00000310: 7001 e93c 60e3 4ebd 43e3 cbbd 172b 80bd
00000320: 7fa6 19bd c28f 77be 6f1d 43be a5fa 53be
00000330: 7ee8 efbc dbc0 60bd 3744 3d3e 3e6d c2bd
00000340: c465 763d 766a 97bc e18d a4bc de61 133e
00000350: a3de e13c 10fb 373e 255d 9b3e 75bb 9c3e
00000360: 716c c4bc a5b7 e93c 41d2 d13d 3010 4fbc
00000370: c4f6 92ba 975d 6ebe 619f 46be aabf 25bd
00000380: e04f 5bbd 75ab ffbd 86c6 77be 4b53 bcbd
00000390: 31c9 30be 8423 36be ccb2 dabc 5812 da3d
000003a0: 8fb8 55bd 7a7e a0bd b3fa aa3d 000f 2f3e
000003b0: be58 2fbe 1556 25bc 96e3 d23d 4869 c23c
000003c0: f642 0d3e b45b fbbc 9983 b8bd 2e28 86bc
000003d0: 291b 00be 16ef de3c f826 e6bc bbbc 2c3e
000003e0: 62fd 0ebe c3c4 34be 5c4c e23d adbc 383e
000003f0: 65be 9d3d d6b9 9a3d 842c 343d 0e2e 62be
-0.14525412 -0.120392196 -0.009208701 0.009181374 -0.081127115 0.03490611 -0.3283085 -0.4002451
-0.28908303 -0.08005074 -0.092158556 0.19377689 -0.061268125 -0.016563615 -0.15524323 0.06363428
0.028816476 0.12319171 -0.16329375 -0.1328025 -0.1282562 0.0074601686 -0.10803458 -0.059248954
-0.028334113 -0.016489437 -0.014531903 0.0044250647 -0.09857015 0.096767075 0.025977448 0.20422803
0.09320224 -0.2608251 -0.09717057 -0.17863199 -0.108600065 -0.16821517 -0.17465276 0.029595155
-0.03861628 0.08808456 0.0049271486 0.18374085 -0.094932064 0.065358825 0.079358734 0.10391577
0.028031727 0.013628746 -0.20577843 -0.07532104 -0.19056198 -0.124516815 0.012307105 0.16070896
-0.1663871 0.020890355 -0.016018441 -0.018063005 -0.073526375 0.22306791 0.13818923 -0.049075384
-0.16420342 0.07925497 0.016617103 -0.05113251 0.20350187 0.03903618 -0.18733245 -0.16980584
-0.018643873 0.05829231 -0.060521383 -0.106953755 -0.10324285 -0.13759272 -0.012416092 0.09503183
-0.08520062 0.023503216 0.12871672 0.07604717 0.039049696 0.09598588 0.034417056 0.0043195076
-0.06435909 -0.05832689 0.07058522 0.005554613 0.0026794807 0.26539186 0.23255233 -0.010895197
-0.13438335 -0.091894776 -0.045425225 0.059036285 0.017577326 -0.161972 -0.08337569 0.0794648
0.052844375 -0.05846177 -0.0905518 -0.0718964 -0.13638857 -0.062004108 0.053979907 0.12175082
0.079287335 -0.13728711 -0.44785848 -0.25499612 0.032209042 0.006146517 -0.058307447 0.018336821
-0.119266875 -0.14193825 0.12703514 -0.014554451 -0.0045006303 -0.21907458 0.16776061 0.15681149
0.095314205 -0.20284072 -0.218185 -0.09459709 0.30461186 0.13211258 0.03983187 0.07054394
0.02421651 -0.014106653 -0.03676738 -0.10419128 -0.10640757 -0.013090678 -0.21282308 -0.1417774
-0.08911192 -0.022621267 -0.119054966 -0.12109655 0.006821439 -0.09180824 0.076111384 -0.05863604
-0.07324976 -0.1162696 -0.10012205 -0.049444687 -0.19403848 0.21563603 0.013834997 0.015436098
-0.0047548176 0.11113009 -0.0681776 0.08035889 -0.16134736 0.13770513 0.27901438 0.081524014
0.0060303747 -0.05942121 -0.08135601 0.11359726 -0.096679404 0.14815247 0.10313035 0.057353776
-0.13095899 -0.10926296 0.08545186 0.20269808 -0.16358906 -0.002494445 -0.102900095 -0.053737197
-0.08664036 -0.090900585 0.1754772 0.026910832 0.26148993 0.17584436 0.023243563 -0.008128012
-0.012008211 -0.09678049 -0.10856862 0.08707715 0.028443068 -0.05050981 -0.09955456 -0.06258219
-0.0375123 -0.24175933 -0.19054197 -0.20701082 -0.029285666 -0.05487142 0.18483053 -0.094934925
0.060155645 -0.018483382 -0.020087184 0.14392802 0.027571982 0.17966866 0.303445 0.30611768
-0.02397749 0.028529951 0.10245181 -0.012638137 -0.0011212458 -0.23277889 -0.19396736 -0.04046599
-0.05354297 -0.12483875 -0.24196824 -0.091955744 -0.17264248 -0.17786986 -0.026696585 0.1064803
-0.052177962 -0.078366235 0.08348598 0.17095566 -0.17123696 -0.010091324 0.10297315 0.023731843
0.13795075 -0.030683376 -0.09009475 -0.016376581 -0.12510361 0.027213614 -0.028094754 0.1686887
-0.13963845 -0.17653184 0.11049721 0.18040724 0.077023305 0.07554977 0.043987766 -0.22087881

conv2.bias f4 [8]
00000000: 6f14 0fbd 1f22 ce3d f240 28bd 2b63 f5bc
00000010: 0f3e 36bd 721f 913d d2db 723d 6447 3c3d
-0.034931596 0.10065102 -0.04107756 -0.029954514 -0.044492777 0.07086076 0.05929167 0.04596652

bn2.weight f4 [8]
00000000: f986 893f 7e75 813f eceb 833f 9d83 7b3f
00000010: 58ed 823f cbbd 7f3f 52e5 6c3f a4d7 6c3f
1.0744315 1.0113981 1.0306373 0.982477 1.0228682 0.99898976 0.92537415 0.9251654

bn2.bias f4 [8]
00000000: 161b b8bc a9ed bfbc af3a 61be b113 5c3d
00000010: b199 91bd 2188 27be 17a3 6bbc 0830 353c
-0.022473853 -0.023428755 -0.21995042 0.053729717 -0.071093924 -0.16360523 -0.014382145 0.011058815

bn2.running_mean f4 [8]
00000000: 729d c1be 21f7 61bd abb7 133c e5d6 8fbe
00000010: fec3 bebd 8ad0 4cbd 5a74 8ebe d1af e6bc
-0.37815434 -0.05516732 0.009015958 -0.2809364 -0.09314726 -0.050003566 -0.27823144 -0.028160008

bn2.running_var f4 [8]
00000000: fda1 9a3d 5de9 a83d d9bd 1d3d 3196 a03d
00000010: edee 123d 036e ac3d e0d1 c73d 3f9f ce3c
0.07550428 0.082476355 0.03851113 0.07841147 0.03587239 0.084194206 0.09756827 0.025222419

conv3.weight f4 [16, 8, 3, 3]
00000000: 85c6 443c ba25 a0bd 6ba3 373c 148b 6bbd
00000010: e465 41bd 4896 bb3c f229 c9bb fc2f bdbd
00000020: b7f8 4bbc 20c4 4f3b 369b b4bd 0daa f8bd
00000030: 66b4 8cbd 608f 50b9 664e 903d fe98 b2bc
00000040: 4abf f6bc c0d0 173c 1e5c 483e 75d6 183e
00000050: ec61 1abe 50ab 2bbd ecc3 cf3d 2ff1 a33d
00000060: 0303 82bc bdf8 86bb 1a00 8cbd 5c56 afbd
00000070: c8c4 1d3d 8bdc be3d 04c1 193d 7be6 203d
00000080: f8fa 15bd 1eaa 4dbd 8cfd ae3c 5fa1 393d
00000090: b616 8dbd 3612 19be bad0 2e3d 6bba d0bc
000000a0: 4ebf 52bc 9b75 4ebd a483 0e3d bf79 113d
000000b0: 8169 dabc ff97 78bd f50f 883d 2718 183d
000000c0: 3a9c 5f3d 8368 053e abda 49bd 9916 1bbe
000000d0: 2639 123d 3c2d 08bc 2c06 2f3c fa6f cb3c
000000e0: 2725 02be 1dcf a0bd 4f9b 673d 9566 a93d
000000f0: 7d01 d43d dfd0 7f3c 042a ba3d 16a7 8b3c
00000100: 1eec a4bd 3e77 c23d a745 7d3d a4bf d23d
00000110: 01ee 90bd f96e e0bb f0fa 2b3d 56a0 91bd
00000120: 49d6 17be 76c0 12bc 078f 7abd bcbc 6f3e
00000130: 5c4e 713e 9d8c 483e 025e 723c 8a1b c33d
00000140: 44f1 193e 7471 e0bd 4d14 15bd e68c 4e3d
00000150: 0637 b63d 072f 823d 6e88 d6bb 352e 3e3c
00000160: 6448 ee3d d720 353d 5127 4cbd 99ce 193e
00000170: 6dcf b13d 2791 9c3d 0fbd b03d 634c 223c
00000180: 0a39 0abd 8898 ccbc e2f0 52bd 998c 7d3d
00000190: 576f 3d3c 72b1 2e3e 54e5 33bd c226 13be
000001a0: 94ef 43be 8320 1f3d 5d4d 153d 71d5 8d3d
000001b0: 1ee2 d33d 7175 383e 3798 203d ea07 b7bb
000001c0: 629d 223b e5d1 9cbc ecd5 16be 517c 043a
000001d0: b9c0 63bd bc5d 063d 6deb 6abd e59e 8abd
000001e0: 0db7 d9bc 2730 f03d 69b0 97bd 62f6 06bd
000001f0: 4e28 c2bd ffae 6a3d 8cb1 36bd a63c e83c
00000200: 0f39 6c3d 8725 1f3d 848b 14bd d054 393c
00000210: 94c9 9bbd c600 aebd 9ed9 cdbd 7dfa b33d
00000220: a4ba 84bc 781d 62bd 948b 683d 4d81 8f3d
00000230: df36 c03c de00 92bd ac51 26bd 8820 15bd
00000240: 77da 953e 0424 a73d 7ad8 45bc 1581 953c
00000250: ad47 0c3d ad3b 743c 7332 bfbd 7443 d03a
00000260: 3a85 b43d 7993 353e 90f0 e93b a5b6 d0bd
00000270: 3ffe 513e d861 ee3d 3524 943d 6f58 b4bd
00000280: b0ca 83bd 6e96 b23d 22a5 2c3d 01e4 2e3d
00000290: 4e1f bd3d 3bf6 163e 80e1 cd3d 9368 99bd
000002a0: 3822 22bd e9a3 d337 5139 0abd 365e debd
000002b0: 1ce0 3dbc f0b2 27bd 9b9c 66bb 9bca 21bd
000002c0: e7c7 debd 518e 8abc 49e7 b33d e767 b03d
000002d0: 2ce0 98bd 4478 90bd c9e3 263e 3446 8cbc
000002e0: 0e20 503c abe6 e63d 69e3 a1bd ca50 92bc
000002f0: b3c3 773d 9d6e d43d 60dc 983d 9de3 aebd
00000300: e1e3 f33d 33aa cd3d 8638 fe3c 4aaa 34bd
00000310: 9ec7 843d 98a9 17be b75f bc3d 215c 9d3d
00000320: 1b24 5dbd 8caa debc 3046 6ebc f284 3d3d
00000330: e3c7 b93c bdf4 fc3c f76f 713d 16a6 fabd
00000340: 3171 4fbd be5c 24bd 5417 1cbd 7ac8 d2bc
00000350: d946 2c3c 4a5e 083d 099c babb 1e37 e9bc
00000360: 541e 2bbd 98a3 01be 7063 c63d a179 d4bb
00000370: 351a c6bd be1e 1abd ead5 b8bd 20e0 00bd
00000380: bb00 fcbb 8145 9abd 0074 d6bd 8801 96bd
00000390: fc48 79bd ee23 65bd ef16 03be 6096 c63d
000003a0: e2fa 4abb 5d98 54be 7c9d 6e3d c871 46bd
000003b0: 15e8 86bd 03e8 ef3d b8a6 163e ac82 e4bd
000003c0: a1ba fe3c 7aac 7fbd f4c5 d5bc 598f f2bd
000003d0: 5fc4 cf3d cd21 db3d 865a 183d e6d3 70bd
000003e0: 6937 85bd 39b1 09bd 82d4 f7bc d4b1 b23d
000003f0: f55a 05bd 559e 073e ea22 883c 2e2a 143e
0.012010221 -0.07819696 0.0112083955 -0.057505682 -0.04721631 0.022898808 -0.0061390335 -0.09237668
-0.012449435 0.0031702593 -0.08818667 -0.121418096 -0.06870346 -0.00019889837 0.07046203 -0.021801468
-0.03012051 0.0092660785 0.1956639 0.14925559 -0.15076417 -0.041911423 0.10144791 0.080049865
-0.015870577 -0.0041190074 -0.06835957 -0.085613936 0.038517743 0.09319409 0.03753759 0.039282303
-0.036616296 -0.050211065 0.021361135 0.04531991 -0.068890974 -0.14948353 0.042679526 -0.025479516
-0.012862993 -0.050405126 0.03479351 0.035516497 -0.026661636 -0.06069183 0.066436686 0.03713241
0.05459235 0.1302815 -0.049280804 -0.15145339 0.035699032 -0.008311566 0.010682624 0.024833668
-0.12709485 -0.07852004 0.0565446 0.08271519 0.10351846 0.015613764 0.09090045 0.017047446
-0.08052848 0.094954 0.061834004 0.10290459 -0.07076646 -0.0068491665 0.04198736 -0.0711066
-0.14827837 -0.008957019 -0.061171558 0.2341184 0.23565048 0.1958489 0.014792921 0.09526737
0.15033442 -0.109591395 -0.036396313 0.05042734 0.08897214 0.06356626 -0.0065470254 0.011607696
0.11634901 0.04422077 -0.049842183 0.15020217 0.086821415 0.07644873 0.0862981 0.009905907
-0.033745803 -0.024975076 -0.051499255 0.061901662 0.01156219 0.17059878 -0.043919876 -0.14370254
-0.1913436 0.038849365 0.036450732 0.06925476 0.10345863 0.1801355 0.039207663 -0.00558566
0.0024813046 -0.019143054 -0.14730042 0.0005053925 -0.055603717 0.032804236 -0.057353426 -0.06768588
-0.026576543 0.11727934 -0.074066944 -0.032949813 -0.09480344 0.057295796 -0.044602916 0.028349232
0.057671603 0.03885415 -0.036265865 0.011311725 -0.07606807 -0.08496241 -0.10051273 0.08788011
-0.016202278 -0.055203885 0.056773737 0.07007084 0.023463665 -0.07129072 -0.040605232 -0.036407977
0.29268238 0.08161166 -0.012075538 0.018250028 0.034248043 0.014906806 -0.09335794 0.0015889243
0.088144735 0.17732038 0.007139273 -0.10191087 0.20507143 0.11639756 0.072334684 -0.0880593
-0.06435144 0.087200984 0.04214967 0.04269791 0.092344865 0.14742367 0.10052776 -0.07490649
-0.039583415 2.5229487e-05 -0.033746067 -0.10857813 -0.011589076 -0.040942132 -0.003518856 -0.03949986
-0.10877972 -0.016913565 0.087843485 0.08613568 -0.074646324 -0.07054189 0.1629783 -0.01712332
0.012702955 0.11274465 -0.07904703 -0.017860789 0.060489368 0.1037266 0.07463908 -0.085395075
0.11908699 0.100422285 0.031032812 -0.044107713 0.064833865 -0.14810789 0.09197944 0.07683588
-0.05398951 -0.027180932 -0.014543101 0.046269365 0.022678321 0.030878419 0.05894467 -0.1223871
-0.050645057 -0.04012751 -0.038108185 -0.02573036 0.010514938 0.033293046 -0.0056948704 -0.028468665
-0.04177697 -0.12660062 0.09686935 -0.006484226 -0.09672967 -0.037626974 -0.09025176 -0.031463742
-0.0076905168 -0.07532788 -0.10471344 -0.07324511 -0.06086062 -0.05594247 -0.12801717 0.096966505
-0.0030972292 -0.20761247 0.058255658 -0.048448354 -0.06587235 0.117141746 0.14712036 -0.11157736
0.031094851 -0.062420346 -0.026095368 -0.11843748 0.10144877 0.10699806 0.037195705 -0.058795832
-0.06504709 -0.03361628 -0.030252699 0.08725324 -0.032557447 0.13243993 0.01661821 0.14469215

conv3.bias f4 [16]
00000000: 167f 873d 35d0 0cbe 7a7e cbbd 39d9 1f3d
00000010: aa14 c43a fffd aeba dccb fc3c 3bec bd3d
00000020: 918e e83d 1f05 85bd 90ff c5bd bf0d 28be
00000030: 45f2 84bd e2a9 12bd fd70 9b3d 2b3d 673c
0.066160366 -0.137513 -0.09936233 0.03902552 0.0014959772 -0.0013350843 0.030858926 0.09273573
0.113553174 -0.064951174 -0.09667885 -0.16411494 -0.06491522 -0.035806544 0.0758991 0.014113705

bn3.weight f4 [16]
00000000: 51b7 b33f e5b1 c63f eacf a83f 5d97 bc3f
00000010: 0393 c53f 429a b33f 27b7 a53f 2b24 c53f
00000020: d0d0 b63f 2285 b73f cdce c43f 40cb bf3f
00000030: 8c18 a93f fcc0 b33f 51fc ce3f 065e b93f
1.4040319 1.5523039 1.318845 1.4733692 1.543549 1.4031451 1.2946519 1.5401663
1.4282475 1.4337504 1.537561 1.4983902 1.3210616 1.4043269 1.6170751 1.4481819

bn3.bias f4 [16]
00000000: af36 0f3d 5781 8a3c 7a83 cebc 1fe6 613c
00000010: 270f 873d 07d5 a03c 9522 a03d bec9 893d
00000020: 0feb e03d db2c a5b9 ca75 633d 834a 5eba
00000030: 3d79 e83b 5bde 843c 5717 173e 4b7c bb3c
0.03496426 0.016907377 -0.025209177 0.013787775 0.06594687 0.01963283 0.07819096 0.067279324
0.10982334 -0.00031504672 0.055532254 -0.0008479731 0.007094531 0.016219309 0.14754997 0.022886416

bn3.running_mean f4 [16]
00000000: ecb2 9d3d 4391 dd3e 67ef dd3e 33fc 35be
00000010: 5a64 2bbe fa88 af3e 34bb 28bd 0d59 c9bd
00000020: b272 09bf 4e2c 6c3e 04c3 e53c 6ea3 d43e
00000030: b5cd dcbd 75fe 0a3f 1293 8bbd a17a 283f
0.07700142 0.43274888 0.43346712 -0.17771988 -0.167375 0.34284192 -0.041194156 -0.09831438
-0.53690636 0.23063776 0.028047092 0.41530937 -0.10781423 0.5429452 -0.06815161 0.65812117

bn3.running_var f4 [16]
00000000: 71c5 973d 7be9 373e f6ec e43d a18d a63d
00000010: 629b 313e 6556 a73d 7e04 aa3d ddba c83d
00000020: 24b0 e63d 9a88 3e3e 4888 0b3e 1ca0 ee3d
00000030: 266e 053e 870b 9d3d 660b 1d3e 6b73 2a3e
0.07410706 0.1796016 0.11178009 0.08132482 0.1734443 0.08170775 0.08301638 0.09801266
0.11264065 0.18606797 0.13626206 0.11651632 0.130303 0.07668214 0.1533638 0.16645591

fc.weight f4 [10, 320]
00000000: afe8 03be a102 50be de57 28be 7d90 bdbd
00000010: 7a30 adbc 2c16 d3bb 870c 963c d1e8 213b
00000020: 5364 6a3d e428 1fbd 9470 afbd a466 ec3d
00000030: 79a3 9c3d 1427 72bc b4c2 933d 58a4 81bd
00000040: 1031 45bd 7c20 833c ff67 8e3d a87f 5ebc
00000050: c51c c3bd ce1e f7bd 6d44 cabc b533 8a3d
00000060: 7d17 3c3e fcc5 1a3e cac9 113e 9163 e53d
00000070: ab38 423e 8837 b93c 7201 c43c 5834 d33d
00000080: 587d d83c c5f7 d73d 63ca c03d b571 de3c
00000090: aea9 023d 2176 8bbd 4a28 ed3c 9232 a5bb
000000a0: df59 a1bd 6028 d9bd 0331 d6bd 5d72 0fbd
000000b0: 3638 bf3d 969c 2b3d f399 b93d 5cd7 c33d
000000c0: fa7c 323e b42e 0fbd c02d b73d 8490 9b3d
000000d0: 4c60 9cbd 13aa e7bd d17d 6bbd f78d 0b3c
000000e0: 7685 88bc 8927 ca3c ddf3 583d 7a1d 993d
000000f0: 2b5d 00bc 6794 37bd 6866 1cbe 4b65 0abe
00000100: 304d 07be 3571 2ebd e995 683d 2e2f bcba
00000110: b111 48bd 0505 02bd 14d8 18bd f6ed c6bd
00000120: 2cf8 31bd b294 c9bd ca77 ffbc 7afa 23bd
00000130: c85a dcbd b657 cebd 0f67 113d 46f1 78bd
00000140: 37c2 c33d 2a8e 923d 9fc6 f83c 276d 203e
00000150: 3f89 0e3d 0c78 013c f24c bfbd a52a a5bd
00000160: 48f2 76bd 8b17 bdbb 2e55 b1bd 54db cebd
00000170: 49fb e8bd c577 4b3d cfdd 39bd 0031 e53b
00000180: ae55 c3bc f311 47bc 5198 0ebc 11dd 973d
00000190: e730 d83c b248 fbbc 1d23 88bd 6cfa 19be
000001a0: 4518 2dbe da3a bcbd d89d febb 95b3 67bd
000001b0: 2e39 2bbc 55c7 4abd 8324 213d 7901 b1bd
000001c0: caf8 56bd 8caa 1abb f618 febd b188 8bbd
000001d0: 4afd 82bd e011 6dbd ed0c 6dbb 1555 083d
000001e0: 810e 493c 4f5c a6bd d26c d8bd 7cf0 38be
000001f0: a920 dbbd 2b0f 29be 6c91 d8bb 0a2c 3ebd
00000200: cc08 91bd 105e 903c e29d 3fbc cff5 6ebd
00000210: f317 a03c 1aab e6bc a26b 003d ab67 4c3c
00000220: fd40 bb3c 0765 d6bc e14b 873c 3a43 55bc
00000230: 17b7 74bd 0a54 1a3e abe3 103e 1492 c73d
00000240: e1c7 49bd dc5c 66bd 2934 9cbd 044e dabc
00000250: a057 d33c 4f45 33bd ed6e 963c 286e a83c
00000260: c112 79bc 7374 fcbd ff97 a7bd 45b0 b2bd
00000270: 3b99 a6bd 3d29 2ebd 8a42 813d 9aef bc3c
00000280: 86de a43c a98b cd3d c403 0f3e c580 273d
00000290: 2db8 25bd 6223 ccbc a547 b2bd 3e90 0abd
000002a0: 93f4 b93c cc94 a33c 725a 773d 17fb d03c
000002b0: f448 a1bd ddc0 c23c 4af8 2ebd 41ae 8fbd
000002c0: f584 14be 7d21 6cbd ec4e b53d 2be6 0cbd
000002d0: 45aa d6bd 3b7e 8cbd 20b9 2e3d 85bd 023e
000002e0: 1bcf 323e c50c d33d 54ba e63d e797 2d3e
000002f0: 4ae3 483e 8dbe 37bd 3ab5 3c3e dd55 173d
00000300: e650 80bc 1032 533d 4896 dbbd 1b2e c2bd
00000310: 467c e93b c506 063c acbd 863d 94e0 4fbd
00000320: 0a04 abbd 69c3 adbd c68d dcbd c251 2fbe
00000330: 22dc 8fbd 6348 5bbd 09f6 133d 8d83 5f3d
00000340: 14bf aa3c 19f5 2ebd 4e5e 7dbd ae20 053d
00000350: 47ab 1b3d b8d8 033e 4da6 cfbb 4a21 babd
00000360: 46b0 2cbe 058b 92bd 877b 8dbd adfc 99bd
00000370: a0a0 64bd 1398 36be d9df fcbd 40ea 8ebb
00000380: e78b 7c3d 1695 36bd 7fb4 883d 2345 8d3d
00000390: 55d2 013d 7f6a b0bd df5f 853d a469 17bd
000003a0: 74c6 18bd 1e8b c2bc d214 1bbd 69d1 c4bc
000003b0: eb06 a63d 0796 f23d e190 993d 3934 a03d
000003c0: 5314 0dbc 6a4c c0bd 76f4 e2bd df09 78bc
000003d0: 2a65 ce3d 705c aa3d 8c88 013d e3a0 b73d
000003e0: 4ce8 393d 6885 08bc e117 983d 77dd 03bc
000003f0: 366e ca3c 1f9b 093d d199 2cbd d4e3 ccbd
-0.1288173 -0.20313503 -0.16439769 -0.092560746 -0.02114128 -0.006441852 0.01831652 0.002470542
0.057224583 -0.038857356 -0.085663944 0.11543015 0.076483674 -0.014779825 0.07214871 -0.06330174
-0.048142493 0.0160067 0.069534294 -0.01358024 -0.09526972 -0.120664224 -0.024690831 0.067481436
0.18368335 0.15114588 0.14237133 0.112006314 0.1896693 0.022609487 0.02392647 0.10312718
0.026426956 0.10545305 0.09413602 0.02715383 0.0319001 -0.06809641 0.028949875 -0.005041429
-0.0787847 -0.10603404 -0.10458567 -0.035021175 0.09336893 0.04189738 0.090625666 0.09562561
0.17430487 -0.03495665 0.08944273 0.075959235 -0.07635555 -0.11311736 -0.057493035 0.008517734
-0.016665202 0.024677055 0.05296694 0.07476325 -0.007834713 -0.044819262 -0.1527344 -0.13515203
-0.13213038 -0.04258843 0.05678359 -0.0014357322 -0.048844997 -0.03174307 -0.037315443 -0.09713356
-0.043449566 -0.098428145 -0.03118505 -0.040033795 -0.10759503 -0.10075323 0.035498675 -0.06077697
0.09558528 0.07156022 0.030368147 0.15666638 0.034798857 0.007902157 -0.09340848 -0.080647744
-0.06028965 -0.005770629 -0.08658825 -0.10100427 -0.11376054 0.049674768 -0.04537755 0.0069943666
-0.023844566 -0.0121502755 -0.008703307 0.07415212 0.026390506 -0.030674312 -0.06647322 -0.15036935
-0.1690379 -0.091909125 -0.0077702813 -0.056567747 -0.010450644 -0.049506504 0.03934146 -0.08642859
-0.052483357 -0.002360019 -0.12407105 -0.06813181 -0.06395967 -0.057878375 -0.0036171034 0.033284266
0.012271524 -0.08123075 -0.10567631 -0.18060488 -0.10699589 -0.16509692 -0.0066091325 -0.046428718
-0.07081756 0.017622977 -0.011695357 -0.05833989 0.01954267 -0.02815776 0.031352647 0.012475888
0.022858137 -0.02617122 0.016515674 -0.013016516 -0.05974492 0.15071121 0.14149348 0.09744659
-0.049262885 -0.0562409 -0.07627136 -0.026648529 0.025798619 -0.04376727 0.01836344 0.02056034
-0.015202225 -0.123268984 -0.08183288 -0.08725027 -0.08134695 -0.042519797 0.063115194 0.02306347
0.020125639 0.10036404 0.1396628 0.04089429 -0.040458847 -0.024919216 -0.08705071 -0.033828966
0.02269963 0.019968413 0.06038899 0.025510354 -0.07875243 0.023773605 -0.042717256 -0.07015658
-0.14503844 -0.057649124 0.08852944 -0.034399193 -0.10481695 -0.06860014 0.042657018 0.12767608
0.17461817 0.1030517 0.11266008 0.16952477 0.19617954 -0.044859458 0.18428507 0.03694712
-0.015663575 0.051561415 -0.10722023 -0.0948145 0.0071254103 0.008180325 0.06579146 -0.050751284
-0.0835038 -0.08484537 -0.10769229 -0.17121032 -0.07024409 -0.05353583 0.03612331 0.054568816
0.020843066 -0.042714212 -0.061857514 0.03250187 0.03800514 0.1287564 -0.0063369633 -0.09088381
-0.16864118 -0.07155422 -0.069083266 -0.07518897 -0.055817246 -0.17831449 -0.12347383 -0.004361421
0.06165686 -0.044575773 0.06675052 0.068979524 0.03169473 -0.086140625 0.065124266 -0.03696598
-0.037298635 -0.023747977 -0.037861653 -0.024025636 0.08106788 0.11845022 0.074983366 0.07822461
-0.008610803 -0.09389575 -0.110817835 -0.015139072 0.10077889 0.08318412 0.031624362 0.089662336
0.04538755 -0.008332588 0.074264295 -0.008048407 0.024710756 0.0335952 -0.04213888 -0.10004392

fc.bias f4 [10]
00000000: cbd1 85bd bac6 a23c dcdc 733b 0514 bcbc
00000010: 2525 85bc 5639 d23c 8ea4 043d eee0 38bd
00000020: d996 6dbd 6e63 3abd
-0.065341555 0.01987015 0.00372105 -0.022958765 -0.016253063 0.025662106 0.032383494 -0.045136385
-0.058005188 -0.04550498
